src/gallium/targets/teflon/tests/models/yolox/005.tflite (tflite, 2160 bytes, 1 tensors)

tfl.pseudo_qconst165 i1 [16, 1, 1, 32] scale=0.0062020347 zero_point=0
000000 ff 04 f7 fc fc f0 07 dd 02 fd 15 d1 f8 04 17 02
       -0.0062020347 0.024808139 -0.055818312 -0.024808139 -0.024808139 -0.099232554 0.043414243 -0.2170712 0.012404069 -0.018606104 0.13024274 -0.29149562 -0.049616277 0.024808139 0.14264679 0.012404069
000010 e5 5a e3 ea ba f5 1b f8 1b 14 e2 3d 0b f5 e9 06
       -0.16745493 0.55818313 -0.17985901 -0.13644476 -0.4341424 -0.06822238 0.16745493 -0.049616277 0.16745493 0.12404069 -0.18606104 0.37832412 0.06822238 -0.06822238 -0.14264679 0.037212208
000020 f5 11 ff 03 08 0a 05 12 08 16 08 fb 21 76 fc b7
       -0.06822238 0.10543459 -0.0062020347 0.018606104 0.049616277 0.062020347 0.031010173 0.111636624 0.049616277 0.13644476 0.049616277 -0.031010173 0.20466715 0.7318401 -0.024808139 -0.45274854
000030 0d ea 0c f4 fa 00 0f fe f7 f9 00 1a f3 06 04 ff
       0.08062645 -0.13644476 0.074424416 -0.074424416 -0.037212208 0.0 0.09303052 -0.012404069 -0.055818312 -0.043414243 0.0 0.1612529 -0.08062645 0.037212208 0.024808139 -0.0062020347
000040 fe f9 fc 14 8b f6 fe dc 08 11 f2 0a fb 05 37 fb
       -0.012404069 -0.043414243 -0.024808139 0.12404069 -0.72563803 -0.062020347 -0.012404069 -0.22327325 0.049616277 0.10543459 -0.086828485 0.062020347 -0.031010173 0.031010173 0.3411119 -0.031010173
000050 f0 f6 0f fb fb 02 08 0d 12 00 ea f8 17 7b f4 21
       -0.099232554 -0.062020347 0.09303052 -0.031010173 -0.031010173 0.012404069 0.049616277 0.08062645 0.111636624 0.0 -0.13644476 -0.049616277 0.14264679 0.7628503 -0.074424416 0.20466715
000060 fd 05 f5 0a 4a ec ff 00 04 f9 ff e4 fe 02 d2 04
       -0.018606104 0.031010173 -0.06822238 0.062020347 0.45895058 -0.12404069 -0.0062020347 0.0 0.024808139 -0.043414243 -0.0062020347 -0.17365697 -0.012404069 0.012404069 -0.28529358 0.024808139
000070 07 f4 05 01 f0 ed 27 06 1c 0c 08 00 01 da 06 1b
       0.043414243 -0.074424416 0.031010173 0.0062020347 -0.099232554 -0.11783866 0.24187934 0.037212208 0.17365697 0.074424416 0.049616277 0.0 0.0062020347 -0.23567732 0.037212208 0.16745493
000080 37 03 28 fd ec 00 f8 d9 0f e1 01 ff fd e7 e7 f6
       0.3411119 0.018606104 0.24808139 -0.018606104 -0.12404069 0.0 -0.049616277 -0.24187934 0.09303052 -0.19226307 0.0062020347 -0.0062020347 -0.018606104 -0.15505087 -0.15505087 -0.062020347
000090 f1 fd e8 24 55 fd ff 04 08 f7 28 14 39 13 01 00
       -0.09303052 -0.018606104 -0.14884883 0.22327325 0.5271729 -0.018606104 -0.0062020347 0.024808139 0.049616277 -0.055818312 0.24808139 0.12404069 0.35351598 0.11783866 0.0062020347 0.0
0000a0 13 fb 11 f2 fb f5 0b f2 0c f4 f7 15 f5 20 fb 63
       0.11783866 -0.031010173 0.10543459 -0.086828485 -0.031010173 -0.06822238 0.06822238 -0.086828485 0.074424416 -0.074424416 -0.055818312 0.13024274 -0.06822238 0.19846511 -0.031010173 0.61400145
0000b0 f1 ea f3 09 fa 02 0c 26 11 d8 08 ea 12 e5 e2 16
       -0.09303052 -0.13644476 -0.08062645 0.055818312 -0.037212208 0.012404069 0.074424416 0.23567732 0.10543459 -0.24808139 0.049616277 -0.13644476 0.111636624 -0.16745493 -0.18606104 0.13644476
0000c0 fb ff 03 07 fa 03 09 18 01 0b 05 f2 0d 02 0d 0d
       -0.031010173 -0.0062020347 0.018606104 0.043414243 -0.037212208 0.018606104 0.055818312 0.14884883 0.0062020347 0.06822238 0.031010173 -0.086828485 0.08062645 0.012404069 0.08062645 0.08062645
0000d0 03 01 06 fd 08 07 0d cd f3 3d fe f1 02 fe 0f 17
       0.018606104 0.0062020347 0.037212208 -0.018606104 0.049616277 0.043414243 0.08062645 -0.31630376 -0.08062645 0.37832412 -0.012404069 -0.09303052 0.012404069 -0.012404069 0.09303052 0.14264679
0000e0 e8 fe cf 9c ff a8 03 00 03 d7 51 b8 f6 d5 0e d5
       -0.14884883 -0.012404069 -0.3038997 -0.6202035 -0.0062020347 -0.54577905 0.018606104 0.0 0.018606104 -0.25428343 0.5023648 -0.4465465 -0.062020347 -0.26668748 0.086828485 -0.26668748
0000f0 e5 10 cd ee e8 0c e8 0e 4c 0e e9 de e5 b9 ff e9
       -0.16745493 0.099232554 -0.31630376 -0.111636624 -0.14884883 0.074424416 -0.14884883 0.086828485 0.47135463 0.086828485 -0.14264679 -0.21086918 -0.16745493 -0.44034445 -0.0062020347 -0.14264679
