src/gallium/targets/teflon/tests/models/yolox/006.tflite (tflite, 1904 bytes, 1 tensors)

tfl.pseudo_qconst163 i1 [16, 1, 1, 16] scale=0.012641347 zero_point=0
000000 0e 02 eb 04 fe f7 dd e5 0c 08 04 39 eb 0e f0 1b
       0.17697886 0.025282694 -0.2654683 0.050565388 -0.025282694 -0.113772124 -0.44244716 -0.34131637 0.15169616 0.101130776 0.050565388 0.7205568 -0.2654683 0.17697886 -0.20226155 0.34131637
000010 fe 19 f4 ee f2 0f 2b 19 f4 f5 03 f2 06 20 07 0a
       -0.025282694 0.31603366 -0.15169616 -0.22754425 -0.17697886 0.18962021 0.5435779 0.31603366 -0.15169616 -0.13905482 0.03792404 -0.17697886 0.07584808 0.4045231 0.08848943 0.12641346
000020 f1 e7 04 0a 12 ff fe f9 f5 e2 10 f1 ee 22 ff f9
       -0.18962021 -0.31603366 0.050565388 0.12641346 0.22754425 -0.012641347 -0.025282694 -0.08848943 -0.13905482 -0.37924042 0.20226155 -0.18962021 -0.22754425 0.4298058 -0.012641347 -0.08848943
000030 fa ed f6 e6 ef 27 fd 12 fe 06 08 05 ef ef e2 0e
       -0.07584808 -0.24018559 -0.12641346 -0.32867503 -0.2149029 0.49301255 -0.03792404 0.22754425 -0.025282694 0.07584808 0.101130776 0.06320673 -0.2149029 -0.2149029 -0.37924042 0.17697886
000040 ee f3 04 02 d4 06 04 fa 32 12 fb 07 28 1b fb da
       -0.22754425 -0.16433752 0.050565388 0.025282694 -0.5562193 0.07584808 0.050565388 -0.07584808 0.6320673 0.22754425 -0.06320673 0.08848943 0.50565386 0.34131637 -0.06320673 -0.48037118
000050 f5 18 00 f2 ff fa e7 0e eb f6 fd e8 fd c2 fa 24
       -0.13905482 0.30339232 0.0 -0.17697886 -0.012641347 -0.07584808 -0.31603366 0.17697886 -0.2654683 -0.12641346 -0.03792404 -0.30339232 -0.03792404 -0.7837635 -0.07584808 0.4550885
000060 fd 0b 02 fa 2e dd f7 1e 7f dd f3 e1 e8 c8 0a 28
       -0.03792404 0.13905482 0.025282694 -0.07584808 0.58150196 -0.44244716 -0.113772124 0.37924042 1.6054511 -0.44244716 -0.16433752 -0.39188176 -0.30339232 -0.7079154 0.12641346 0.50565386
000070 fa f1 02 f8 fe e6 39 f9 03 17 0e 19 fc e8 03 02
       -0.07584808 -0.18962021 0.025282694 -0.101130776 -0.025282694 -0.32867503 0.7205568 -0.08848943 0.03792404 0.29075098 0.17697886 0.31603366 -0.050565388 -0.30339232 0.03792404 0.025282694
000080 f4 01 f8 ee 24 03 08 15 ea ed f5 0a eb ee 19 20
       -0.15169616 0.012641347 -0.101130776 -0.22754425 0.4550885 0.03792404 0.101130776 0.2654683 -0.27810964 -0.24018559 -0.13905482 0.12641346 -0.2654683 -0.22754425 0.31603366 0.4045231
000090 09 fa f2 f4 f7 f1 d4 10 08 e5 12 f3 11 ff 14 01
       0.113772124 -0.07584808 -0.17697886 -0.15169616 -0.113772124 -0.18962021 -0.5562193 0.20226155 0.101130776 -0.34131637 0.22754425 -0.16433752 0.2149029 -0.012641347 0.25282693 0.012641347
0000a0 ff f7 0e 05 fb e3 1d 1a ec e9 0e c1 19 fa 3d ee
       -0.012641347 -0.113772124 0.17697886 0.06320673 -0.06320673 -0.36659905 0.36659905 0.32867503 -0.25282693 -0.29075098 0.17697886 -0.79640484 0.31603366 -0.07584808 0.77112216 -0.22754425
0000b0 02 30 ff fb 08 06 0c f4 08 ee fb d1 0c e0 e3 e9
       0.025282694 0.60678464 -0.012641347 -0.06320673 0.101130776 0.07584808 0.15169616 -0.15169616 0.101130776 -0.22754425 -0.06320673 -0.59414333 0.15169616 -0.4045231 -0.36659905 -0.29075098
0000c0 01 13 fb 16 0c be f6 04 0d 06 f0 00 23 24 25 eb
       0.012641347 0.24018559 -0.06320673 0.27810964 0.15169616 -0.8343289 -0.12641346 0.050565388 0.16433752 0.07584808 -0.20226155 0.0 0.44244716 0.4550885 0.46772984 -0.2654683
0000d0 e1 03 f4 04 12 0b 19 04 06 28 47 f1 0a 02 07 fb
       -0.39188176 0.03792404 -0.15169616 0.050565388 0.22754425 0.13905482 0.31603366 0.050565388 0.07584808 0.50565386 0.8975356 -0.18962021 0.12641346 0.025282694 0.08848943 -0.06320673
0000e0 2d 71 ec f6 ee 1c f2 d4 f7 ea 21 25 f2 ed c8 e7
       0.5688606 1.4284722 -0.25282693 -0.12641346 -0.22754425 0.3539577 -0.17697886 -0.5562193 -0.113772124 -0.27810964 0.41716444 0.46772984 -0.17697886 -0.24018559 -0.7079154 -0.31603366
0000f0 fc fe 01 19 fc eb 01 f3 f4 35 e9 de f8 fe 02 07
       -0.050565388 -0.025282694 0.012641347 0.31603366 -0.050565388 -0.2654683 0.012641347 -0.16433752 -0.15169616 0.6699914 -0.29075098 -0.4298058 -0.101130776 -0.025282694 0.025282694 0.08848943
