src/gallium/targets/teflon/tests/models/yolox/009.tflite (tflite, 2160 bytes, 1 tensors)

tfl.pseudo_qconst159 i1 [16, 1, 1, 32] scale=0.011405964 zero_point=0
000000 0f e7 f0 00 1d f2 f7 fc fa f3 07 06 03 ec 47 fd
       0.17108947 -0.2851491 -0.18249543 0.0 0.33077297 -0.1596835 -0.10265368 -0.045623858 -0.06843579 -0.14827754 0.07984175 0.06843579 0.034217894 -0.22811928 0.80982345 -0.034217894
000010 f8 10 0c 19 ff 1e fb 09 ef 17 fc e0 12 c6 0b f8
       -0.091247715 0.18249543 0.13687158 0.2851491 -0.011405964 0.34217894 -0.05702982 0.10265368 -0.19390139 0.26233718 -0.045623858 -0.36499086 0.20530736 -0.66154593 0.1254656 -0.091247715
000020 f3 00 e1 bb 2c c0 f8 f8 00 e9 ec fd db fd 31 0a
       -0.14827754 0.0 -0.3535849 -0.78701156 0.5018624 -0.7299817 -0.091247715 -0.091247715 0.0 -0.26233718 -0.22811928 -0.034217894 -0.42202067 -0.034217894 0.55889225 0.11405964
000030 f0 fb f5 f9 21 03 f7 01 0c f3 f2 05 e5 1c fb eb
       -0.18249543 -0.05702982 -0.1254656 -0.07984175 0.37639683 0.034217894 -0.10265368 0.011405964 0.13687158 -0.14827754 -0.1596835 0.05702982 -0.30796105 0.319367 -0.05702982 -0.23952526
000040 fc 03 02 1e f2 1b 03 f1 05 08 30 12 f2 fe f5 e9
       -0.045623858 0.034217894 0.022811929 0.34217894 -0.1596835 0.30796105 0.034217894 -0.17108947 0.05702982 0.091247715 0.5474863 0.20530736 -0.1596835 -0.022811929 -0.1254656 -0.26233718
000050 f1 13 f7 fa de 04 0e 09 15 fe f3 09 00 ef 5c 0b
       -0.17108947 0.21671332 -0.10265368 -0.06843579 -0.38780278 0.045623858 0.1596835 0.10265368 0.23952526 -0.022811929 -0.14827754 0.10265368 0.0 -0.19390139 1.0493487 0.1254656
000060 f6 fc fb e0 f7 e4 fe 2c f8 10 05 14 e1 eb 06 fe
       -0.11405964 -0.045623858 -0.05702982 -0.36499086 -0.10265368 -0.319367 -0.022811929 0.5018624 -0.091247715 0.18249543 0.05702982 0.22811928 -0.3535849 -0.23952526 0.06843579 -0.022811929
000070 1c fa 1e 0e f2 0d f3 f7 38 00 10 f3 f7 12 f7 10
       0.319367 -0.06843579 0.34217894 0.1596835 -0.1596835 0.14827754 -0.14827754 -0.10265368 0.638734 0.0 0.18249543 -0.14827754 -0.10265368 0.20530736 -0.10265368 0.18249543
000080 09 fd 0a f7 05 00 f9 26 f6 11 09 ef fd 12 f7 ef
       0.10265368 -0.034217894 0.11405964 -0.10265368 0.05702982 0.0 -0.07984175 0.43342665 -0.11405964 0.19390139 0.10265368 -0.19390139 -0.034217894 0.20530736 -0.10265368 -0.19390139
000090 01 2e fa 00 14 fc 21 46 f4 15 01 10 07 f5 f8 10
       0.011405964 0.52467436 -0.06843579 0.0 0.22811928 -0.045623858 0.37639683 0.7984175 -0.13687158 0.23952526 0.011405964 0.18249543 0.07984175 -0.1254656 -0.091247715 0.18249543
0000a0 f7 f2 fd 19 0f 0d fc e0 fe fc f1 0b 0f f2 eb 0e
       -0.10265368 -0.1596835 -0.034217894 0.2851491 0.17108947 0.14827754 -0.045623858 -0.36499086 -0.022811929 -0.045623858 -0.17108947 0.1254656 0.17108947 -0.1596835 -0.23952526 0.1596835
0000b0 f9 ff f8 fa 08 f3 01 1d 2f 3f fc dd f9 fb 0f f5
       -0.07984175 -0.011405964 -0.091247715 -0.06843579 0.091247715 -0.14827754 0.011405964 0.33077297 0.5360803 0.7185758 -0.045623858 -0.39920875 -0.07984175 -0.05702982 0.17108947 -0.1254656
0000c0 fa fd 12 16 31 15 ff fe 00 0c e9 18 0a ff 18 f0
       -0.06843579 -0.034217894 0.20530736 0.2509312 0.55889225 0.23952526 -0.011405964 -0.022811929 0.0 0.13687158 -0.26233718 0.27374315 0.11405964 -0.011405964 0.27374315 -0.18249543
0000d0 f8 f6 09 f9 08 f4 11 f4 f6 06 f8 00 fe d5 f9 46
       -0.091247715 -0.11405964 0.10265368 -0.07984175 0.091247715 -0.13687158 0.19390139 -0.13687158 -0.11405964 0.06843579 -0.091247715 0.0 -0.022811929 -0.49045646 -0.07984175 0.7984175
0000e0 ce 0a 26 0c 01 db 02 1f 04 26 ee e5 ed fc e1 ff
       -0.5702982 0.11405964 0.43342665 0.13687158 0.011405964 -0.42202067 0.022811929 0.3535849 0.045623858 0.43342665 -0.20530736 -0.30796105 -0.21671332 -0.045623858 -0.3535849 -0.011405964
0000f0 cd e9 25 13 19 ed 15 02 fa 07 dc fe 2b 02 03 e5
       -0.5817042 -0.26233718 0.42202067 0.21671332 0.2851491 -0.21671332 0.23952526 0.022811929 -0.06843579 0.07984175 -0.41061473 -0.022811929 0.49045646 0.022811929 0.034217894 -0.30796105
