src/gallium/targets/teflon/tests/models/yolox/015.tflite (tflite, 3760 bytes, 1 tensors)

tfl.pseudo_qconst151 i1 [32, 1, 1, 64] scale=0.00490791 zero_point=0
0.16196102 -0.00490791 0.044171188 0.0 -0.014723729 -0.06380282 0.044171188 -0.01963164
-0.07361865 -0.03435537 0.03435537 -0.029447459 -0.06871074 0.014723729 -0.029447459 0.00490791
-0.07852656 0.00490791 0.06871074 -0.088342376 -0.06380282 -0.029447459 -0.029447459 -0.03435537
-0.03926328 -0.058894917 0.01963164 -0.049079098 -0.098158196 0.08343446 0.044171188 -0.024539549
-0.01963164 -0.13251357 -0.029447459 -0.12269774 -0.029447459 -0.014723729 0.00490791 -0.03435537
0.06380282 -0.07852656 -0.00981582 0.08343446 0.029447459 0.044171188 0.13742147 0.18159266
0.00490791 0.044171188 0.014723729 -0.14232938 0.00490791 -0.13251357 0.03435537 0.07361865
0.1521452 0.024539549 -0.00981582 -0.029447459 0.00490791 -0.16686893 -0.014723729 0.07852656
0.024539549 -0.03435537 0.049079098 -0.024539549 -0.024539549 0.014723729 -0.107974015 0.00981582
-0.03926328 -0.044171188 -0.18650058 -0.07361865 0.1030661 -0.049079098 -0.117789835 -0.16686893
-0.098158196 0.06871074 -0.024539549 0.088342376 -0.13251357 -0.014723729 0.03435537 0.058894917
0.08343446 0.03435537 0.014723729 -0.07361865 0.044171188 -0.024539549 0.15705311 -0.014723729
0.1030661 -0.11288193 0.00490791 -0.03926328 0.029447459 -0.03926328 -0.14232938 -0.06871074
0.09325029 -0.06871074 0.029447459 0.00981582 0.053987008 -0.049079098 -0.029447459 -0.13251357
-0.00490791 -0.044171188 -0.13251357 -0.00981582 -0.014723729 -0.053987008 0.13742147 0.06871074
0.014723729 -0.044171188 -0.029447459 0.098158196 0.18650058 0.09325029 -0.053987008 0.03926328
-0.088342376 0.12269774 0.049079098 -0.00981582 0.024539549 0.00981582 0.03926328 -0.024539549
0.14232938 0.00981582 -0.03435537 -0.00981582 0.058894917 -0.01963164 -0.07361865 -0.01963164
-0.088342376 -0.07852656 -0.024539549 -0.00981582 0.12269774 0.014723729 -0.03926328 -0.06871074
-0.024539549 -0.08343446 -0.014723729 -0.029447459 0.07361865 0.07361865 0.00981582 -0.00981582
-0.014723729 -0.08343446 0.00490791 0.03926328 -0.044171188 0.01963164 -0.08343446 0.06871074
0.00981582 -0.024539549 -0.07361865 -0.15705311 0.014723729 0.00490791 -0.03926328 -0.09325029
0.00490791 0.024539549 -0.07852656 0.06871074 0.014723729 0.06871074 -0.19140849 -0.053987008
-0.18159266 -0.098158196 0.053987008 0.0 0.0 -0.01963164 0.01963164 -0.024539549
-0.00490791 0.0 -0.18650058 -0.09325029 0.00981582 -0.01963164 -0.03435537 0.014723729
-0.00981582 0.01963164 0.00490791 -0.06380282 0.024539549 -0.06380282 -0.024539549 0.0
-0.01963164 0.01963164 -0.014723729 0.024539549 -0.014723729 0.01963164 -0.044171188 -0.029447459
0.049079098 -0.07852656 -0.03926328 -0.058894917 -0.00981582 0.09325029 0.058894917 0.03926328
0.01963164 0.1030661 0.00981582 -0.03435537 0.06871074 -0.029447459 0.07361865 -0.03926328
0.06871074 0.00981582 -0.00490791 0.03926328 0.00490791 0.088342376 0.117789835 -0.00981582
-0.049079098 -0.014723729 -0.00490791 -0.053987008 -0.044171188 0.00490791 0.01963164 0.024539549
-0.13251357 -0.06871074 -0.053987008 0.00981582 0.03435537 0.14232938 0.0 0.03435537
00000000: 21ff 0900 fdf3 09fc f1f9 07fa f203 fa01
00000010: f001 0eee f3fa faf9 f8f4 04f6 ec11 09fb
00000020: fce5 fae7 fafd 01f9 0df0 fe11 0609 1c25
00000030: 0109 03e3 01e5 070f 1f05 fefa 01de fd10
00000040: 05f9 0afb fb03 ea02 f8f7 daf1 15f6 e8de
00000050: ec0e fb12 e5fd 070c 1107 03f1 09fb 20fd
00000060: 15e9 01f8 06f8 e3f2 13f2 0602 0bf6 fae5
00000070: fff7 e5fe fdf5 1c0e 03f7 fa14 2613 f508
00000080: ee19 0afe 0502 08fb 1d02 f9fe 0cfc f1fc
00000090: eef0 fbfe 1903 f8f2 fbef fdfa 0f0f 02fe
000000a0: fdef 0108 f704 ef0e 02fb f1e0 0301 f8ed
000000b0: 0105 f00e 030e d9f5 dbec 0b00 00fc 04fb
000000c0: ff00 daed 02fc f903 fe04 01f3 05f3 fb00
000000d0: fc04 fd05 fd04 f7fa 0af0 f8f4 fe13 0c08
000000e0: 0415 02f9 0efa 0ff8 0e02 ff08 0112 18fe
000000f0: f6fd fff5 f701 0405 e5f2 f502 071d 0007
