src/gallium/targets/teflon/tests/models/yolox/016.tflite (tflite, 2752 bytes, 1 tensors)

tfl.pseudo_qconst149 i1 [32, 1, 1, 32] scale=0.019774977 zero_point=0
-0.11864986 0.2570747 -0.23729973 0.11864986 -0.39549953 0.2768497 0.35594958 0.35594958
0.17797479 -0.29662466 0.2570747 0.11864986 -0.05932493 -0.13842484 -0.31639963 -0.17797479
0.37572455 -0.09887488 0.19774976 0.039549954 0.07909991 0.17797479 -0.07909991 0.05932493
-0.29662466 -0.039549954 -0.3361746 0.5932493 0.45482448 -0.3361746 -0.47459945 -0.2570747
-0.31639963 -0.05932493 -0.57347435 0.23729973 -0.17797479 0.13842484 -0.49437442 0.19774976
-0.41527453 -0.7712241 0.6130243 0.6723492 1.5028982 -0.35594958 -0.17797479 0.6723492
0.039549954 0.65257424 0.19774976 0.6921242 0.47459945 -0.23729973 -0.05932493 -0.31639963
0.83054906 -0.3361746 -0.15819982 -0.11864986 -0.65257424 -0.45482448 0.4350495 -0.2570747
-0.039549954 -0.039549954 0.5932493 0.49437442 0.49437442 -0.11864986 0.73167413 0.6130243
-0.13842484 0.23729973 -0.09887488 -0.039549954 0.13842484 -0.5339244 0.09887488 0.09887488
-0.19774976 -0.21752475 0.2768497 0.6723492 -0.23729973 -0.17797479 -0.15819982 -0.23729973
-0.2768497 0.37572455 -0.019774977 -0.35594958 -0.3361746 -0.21752475 -0.019774977 -0.13842484
-0.3361746 -0.21752475 -0.45482448 0.0 0.29662466 0.19774976 -0.09887488 0.0
0.63279927 0.47459945 0.039549954 0.37572455 -0.09887488 0.11864986 0.0 -0.2768497
-0.13842484 -0.23729973 0.23729973 0.15819982 0.63279927 0.29662466 0.019774977 0.57347435
0.23729973 -1.2458235 0.6130243 -0.31639963 0.2570747 -0.49437442 -0.41527453 -0.57347435
-0.19774976 0.8107741 0.15819982 -0.6130243 0.039549954 -0.35594958 -0.2570747 0.039549954
0.039549954 -0.39549953 0.29662466 -0.039549954 0.07909991 0.2768497 -0.41527453 -0.29662466
0.019774977 0.23729973 0.0 0.21752475 0.39549953 0.19774976 -0.35594958 0.09887488
-0.17797479 0.39549953 0.31639963 -0.23729973 0.39549953 2.5114222 0.37572455 -0.05932493
0.11864986 0.31639963 0.13842484 -0.019774977 0.019774977 -0.37572455 -0.23729973 -0.3361746
-0.6921242 0.19774976 0.019774977 0.039549954 0.19774976 -0.47459945 -0.05932493 -0.31639963
-0.5932493 0.15819982 -0.019774977 0.13842484 -0.15819982 0.07909991 -0.45482448 -0.3361746
-0.17797479 -0.870099 -0.5932493 -0.13842484 0.0 -0.2768497 -0.2768497 0.09887488
-0.47459945 0.09887488 0.29662466 -0.71189916 0.07909991 0.13842484 0.47459945 0.31639963
0.0 -0.019774977 -0.15819982 -0.15819982 -0.039549954 0.3361746 0.2570747 0.21752475
-0.49437442 0.5339244 -0.19774976 -0.15819982 -0.39549953 0.19774976 -0.49437442 -0.5339244
-0.11864986 0.5339244 -0.3361746 0.57347435 0.31639963 -0.39549953 0.889874 0.05932493
0.65257424 0.09887488 0.039549954 -0.2768497 -0.11864986 -0.23729973 -0.3361746 0.35594958
0.6723492 0.41527453 -0.47459945 -0.09887488 0.11864986 0.2768497 -0.2570747 0.2570747
0.11864986 0.039549954 -0.29662466 0.05932493 -0.9294239 -0.41527453 0.11864986 0.13842484
0.039549954 0.6130243 -0.039549954 -0.05932493 -0.3361746 -0.23729973 -0.29662466 0.0
00000000: fa0d f406 ec0e 1212 09f1 0d06 fdf9 f0f7
00000010: 13fb 0a02 0409 fc03 f1fe ef1e 17ef e8f3
00000020: f0fd e30c f707 e70a ebd9 1f22 4cee f722
00000030: 0221 0a23 18f4 fdf0 2aef f8fa dfe9 16f3
00000040: fefe 1e19 19fa 251f f90c fbfe 07e5 0505
00000050: f6f5 0e22 f4f7 f8f4 f213 ffee eff5 fff9
00000060: eff5 e900 0f0a fb00 2018 0213 fb06 00f2
00000070: f9f4 0c08 200f 011d 0cc1 1ff0 0de7 ebe3
00000080: f629 08e1 02ee f302 02ec 0ffe 040e ebf1
00000090: 010c 000b 140a ee05 f714 10f4 147f 13fd
000000a0: 0610 07ff 01ed f4ef dd0a 0102 0ae8 fdf0
000000b0: e208 ff07 f804 e9ef f7d4 e2f9 00f2 f205
000000c0: e805 0fdc 0407 1810 00ff f8f8 fe11 0d0b
000000d0: e71b f6f8 ec0a e7e5 fa1b ef1d 10ec 2d03
000000e0: 2105 02f2 faf4 ef12 2215 e8fb 060e f30d
000000f0: 0602 f103 d1eb 0607 021f fefd eff4 f100
