src/gallium/targets/teflon/tests/models/yolox/017.tflite (tflite, 10960 bytes, 1 tensors)

tfl.pseudo_qconst147 i1 [32, 3, 3, 32] scale=0.0030419547 zero_point=0
0.009125864 -0.030419547 -0.021293683 0.027377592 -0.0030419547 0.009125864 -0.030419547 0.015209774
0.012167819 -0.030419547 -0.012167819 -0.021293683 0.024335638 0.009125864 -0.0030419547 -0.0030419547
0.0060839094 -0.0060839094 -0.05779714 -0.033461504 -0.018251728 0.0060839094 -0.018251728 -0.009125864
0.009125864 0.030419547 0.027377592 0.027377592 0.021293683 -0.030419547 -0.021293683 -0.0030419547
-0.054755185 0.018251728 -0.018251728 -0.048671275 -0.03954541 0.021293683 0.07300691 -0.012167819
0.018251728 -0.015209774 0.060839094 0.0 0.012167819 0.024335638 0.06388105 0.042587366
0.060839094 0.0 0.14297187 -0.054755185 0.015209774 0.0060839094 0.033461504 -0.045629323
-0.033461504 0.030419547 -0.021293683 -0.018251728 0.012167819 -0.009125864 -0.018251728 -0.0030419547
-0.027377592 -0.0030419547 0.0060839094 0.021293683 -0.054755185 0.036503457 -0.0030419547 -0.024335638
-0.05171323 0.0060839094 0.024335638 0.05779714 -0.009125864 0.05779714 0.015209774 -0.015209774
-0.009125864 -0.06692301 -0.03954541 -0.054755185 -0.036503457 -0.054755185 -0.015209774 -0.048671275
0.0 0.009125864 0.015209774 -0.0030419547 0.0030419547 0.009125864 -0.009125864 -0.030419547
-0.027377592 0.018251728 -0.060839094 0.07909082 -0.036503457 0.036503457 0.009125864 -0.042587366
-0.015209774 -0.088216685 -0.054755185 0.06692301 -0.0030419547 0.12472014 0.06692301 0.027377592
-0.036503457 0.0060839094 0.021293683 -0.033461504 -0.024335638 -0.027377592 -0.012167819 0.05171323
0.06388105 -0.009125864 -0.045629323 -0.012167819 -0.03954541 -0.027377592 -0.027377592 -0.0030419547
-0.17339142 0.088216685 -0.11559428 0.088216685 -0.027377592 0.13384601 0.06388105 -0.033461504
-0.021293683 -0.05171323 0.07909082 -0.033461504 0.16426556 0.16730751 0.22510464 0.19164315
0.03954541 0.06996496 0.27985984 -0.1277621 -0.06388105 -0.054755185 0.14601383 0.033461504
-0.07300691 -0.018251728 -0.17947532 0.027377592 0.009125864 -0.05779714 -0.13384601 -0.015209774
-0.07300691 -0.0060839094 -0.018251728 0.060839094 -0.042587366 0.009125864 0.0 -0.021293683
-0.045629323 0.027377592 0.03954541 0.045629323 0.07909082 0.07909082 0.015209774 0.03954541
0.027377592 -0.027377592 0.024335638 -0.10342646 -0.018251728 -0.05779714 0.08213278 -0.033461504
0.08213278 0.07300691 -0.042587366 -0.018251728 -0.045629323 -0.015209774 -0.076048866 0.0060839094
0.06692301 0.0060839094 0.05171323 0.012167819 -0.060839094 -0.05171323 0.0060839094 -0.0060839094
0.048671275 0.08517473 0.06692301 0.024335638 -0.07909082 -0.036503457 -0.054755185 -0.0030419547
-0.012167819 -0.033461504 -0.08517473 0.015209774 -0.042587366 -0.042587366 0.048671275 0.012167819
0.015209774 -0.015209774 -0.024335638 0.0060839094 0.033461504 0.06996496 -0.0060839094 -0.012167819
0.20381096 -0.012167819 0.033461504 0.033461504 -0.08213278 -0.07300691 0.12472014 -0.021293683
0.088216685 0.14601383 -0.10646842 -0.14297187 -0.05171323 -0.21597879 -0.0060839094 -0.18251729
0.06388105 -0.12472014 -0.33765697 -0.048671275 -0.11559428 0.033461504 0.0060839094 0.13080405
0.027377592 0.0060839094 -0.07300691 0.08213278 0.15513968 0.10951037 0.10646842 0.042587366
00000000: 03f6 f909 ff03 f605 04f6 fcf9 0803 ffff
00000010: 02fe edf5 fa02 fafd 030a 0909 07f6 f9ff
00000020: ee06 faf0 f307 18fc 06fb 1400 0408 150e
00000030: 1400 2fee 0502 0bf1 f50a f9fa 04fd faff
00000040: f7ff 0207 ee0c fff8 ef02 0813 fd13 05fb
00000050: fdea f3ee f4ee fbf0 0003 05ff 0103 fdf6
00000060: f706 ec1a f40c 03f2 fbe3 ee16 ff29 1609
00000070: f402 07f5 f8f7 fc11 15fd f1fc f3f7 f7ff
00000080: c71d da1d f72c 15f5 f9ef 1af5 3637 4a3f
00000090: 0d17 5cd6 ebee 300b e8fa c509 03ed d4fb
000000a0: e8fe fa14 f203 00f9 f109 0d0f 1a1a 050d
000000b0: 09f7 08de faed 1bf5 1b18 f2fa f1fb e702
000000c0: 1602 1104 ecef 02fe 101c 1608 e6f4 eeff
000000d0: fcf5 e405 f2f2 1004 05fb f802 0b17 fefc
000000e0: 43fc 0b0b e5e8 29f9 1d30 ddd1 efb9 fec4
000000f0: 15d7 91f0 da0b 022b 0902 e81b 3324 230e
