src/gallium/targets/teflon/tests/models/yolox/020.tflite (tflite, 10960 bytes, 1 tensors)

tfl.pseudo_qconst143 i1 [32, 3, 3, 32] scale=0.003519697 zero_point=0
-0.014078788 0.045756064 0.052795455 -0.02463788 0.08447273 -0.06687424 -0.052795455 -0.03519697
-0.042236365 0.02463788 0.038716666 0.0 -0.007039394 -0.052795455 -0.003519697 0.038716666
-0.02463788 -0.06687424 -0.007039394 -0.028157577 -0.038716666 0.07743333 -0.08799243 0.038716666
-0.045756064 0.007039394 -0.017598486 -0.08799243 0.010559091 -0.031677276 -0.052795455 0.028157577
-0.038716666 0.02463788 0.09503182 0.028157577 0.010559091 0.07391364 -0.03519697 0.017598486
0.09855152 0.04927576 0.09503182 -0.04927576 0.038716666 0.06335455 0.08447273 0.038716666
-0.042236365 -0.04927576 -0.09855152 -0.06335455 -0.02463788 0.003519697 -0.042236365 0.059834853
-0.059834853 0.010559091 0.08095303 -0.07039394 -0.017598486 0.021118183 0.031677276 -0.07039394
-0.10207122 -0.059834853 0.010559091 0.052795455 0.04927576 0.042236365 0.0 -0.003519697
0.052795455 -0.08447273 0.028157577 -0.007039394 -0.014078788 -0.11263031 -0.02463788 -0.042236365
0.028157577 -0.007039394 0.0 -0.028157577 -0.04927576 0.09855152 0.042236365 0.059834853
-0.003519697 0.014078788 0.017598486 -0.031677276 0.0 0.021118183 0.1231894 0.03519697
0.031677276 0.038716666 -0.06335455 0.09151213 -0.09503182 0.14782728 0.08447273 0.09151213
0.007039394 -0.09855152 0.052795455 0.0 0.056315154 -0.017598486 -0.045756064 -0.003519697
-0.031677276 0.052795455 0.09151213 0.038716666 0.031677276 0.18654394 -0.09503182 -0.06335455
0.0 0.11263031 -0.04927576 -0.017598486 -0.07391364 0.010559091 -0.06335455 -0.028157577
-0.09151213 0.052795455 0.07039394 -0.08447273 -0.038716666 0.13374849 -0.021118183 0.07391364
-0.10559091 -0.15838636 0.0 0.08095303 -0.07391364 -0.031677276 -0.03519697 0.13726819
-0.056315154 0.021118183 0.038716666 0.04927576 -0.1231894 0.021118183 -0.13022879 0.038716666
0.03519697 0.06687424 0.017598486 0.028157577 -0.21822122 0.20766214 -0.07743333 -0.18302426
-0.06335455 -0.15134698 0.04927576 -0.11263031 0.03519697 0.16190606 -0.1267091 -0.09151213
-0.031677276 -0.06335455 0.042236365 -0.028157577 0.09151213 -0.09855152 0.02463788 0.038716666
0.09503182 0.042236365 -0.014078788 -0.038716666 -0.028157577 0.15134698 0.010559091 0.02463788
0.059834853 0.11615001 -0.1231894 0.0 0.038716666 0.06335455 0.045756064 0.045756064
-0.06335455 0.014078788 0.045756064 -0.03519697 -0.014078788 0.03519697 0.13726819 0.017598486
0.007039394 -0.02463788 -0.021118183 0.03519697 0.042236365 0.042236365 0.07743333 -0.031677276
0.010559091 0.031677276 -0.003519697 -0.007039394 -0.03519697 0.07039394 0.038716666 0.021118183
-0.038716666 0.056315154 -0.02463788 0.021118183 -0.06687424 0.010559091 0.02463788 0.045756064
-0.13726819 0.02463788 0.038716666 -0.003519697 0.010559091 0.028157577 0.07391364 0.07391364
-0.06687424 0.02463788 -0.15134698 0.031677276 0.059834853 0.07391364 -0.056315154 0.1231894
-0.010559091 0.04927576 0.045756064 -0.014078788 0.003519697 -0.017598486 0.045756064 0.028157577
-0.014078788 -0.010559091 -0.13374849 -0.003519697 -0.14078788 0.16894546 0.06335455 -0.03519697
00000000: fc0d 0ff9 18ed f1f6 f407 0b00 fef1 ff0b
00000010: f9ed fef8 f516 e70b f302 fbe7 03f7 f108
00000020: f507 1b08 0315 f605 1c0e 1bf2 0b12 180b
00000030: f4f2 e4ee f901 f411 ef03 17ec fb06 09ec
00000040: e3ef 030f 0e0c 00ff 0fe8 08fe fce0 f9f4
00000050: 08fe 00f8 f21c 0c11 ff04 05f7 0006 230a
00000060: 090b ee1a e52a 181a 02e4 0f00 10fb f3ff
00000070: f70f 1a0b 0935 e5ee 0020 f2fb eb03 eef8
00000080: e60f 14e8 f526 fa15 e2d3 0017 ebf7 f627
00000090: f006 0b0e dd06 db0b 0a13 0508 c23b eacc
000000a0: eed5 0ee0 0a2e dce6 f7ee 0cf8 1ae4 070b
000000b0: 1b0c fcf5 f82b 0307 1121 dd00 0b12 0d0d
000000c0: ee04 0df6 fc0a 2705 02f9 fa0a 0c0c 16f7
000000d0: 0309 fffe f614 0b06 f510 f906 ed03 070d
000000e0: d907 0bff 0308 1515 ed07 d509 1115 f023
000000f0: fd0e 0dfc 01fb 0d08 fcfd daff d830 12f6
