src/gallium/targets/teflon/tests/models/yolox/026.tflite (tflite, 5808 bytes, 1 tensors)

tfl.pseudo_qconst137 i1 [64, 1, 1, 64] scale=0.0049394127 zero_point=0
-0.12842473 0.0395153 0.0395153 0.034575887 -0.049394127 0.01975765 0.06421237 0.0049394127
0.108667076 -0.014818238 0.06421237 -0.024697063 0.029636476 -0.029636476 0.024697063 -0.014818238
-0.118545905 -0.044454716 -0.029636476 0.049394127 0.2321524 -0.059272952 0.014818238 -0.06421237
0.049394127 -0.029636476 0.044454716 0.21733415 0.20251592 -0.029636476 -0.044454716 0.08890943
-0.049394127 -0.024697063 0.0790306 -0.024697063 -0.0395153 -0.0049394127 -0.098788254 0.0049394127
0.034575887 0.034575887 -0.06421237 0.0 0.08890943 -0.029636476 -0.0395153 0.06421237
0.049394127 0.034575887 -0.07409119 -0.009878825 -0.014818238 -0.06421237 -0.01975765 0.054333538
0.014818238 0.014818238 0.01975765 -0.0049394127 0.049394127 0.0049394127 -0.044454716 0.0395153
0.07409119 0.009878825 -0.014818238 0.024697063 0.059272952 0.029636476 0.0 0.0395153
0.0 0.034575887 0.07409119 0.0 -0.01975765 0.11360649 -0.014818238 0.014818238
0.049394127 0.098788254 -0.059272952 0.108667076 -0.044454716 -0.024697063 0.098788254 0.0049394127
0.0790306 -0.06421237 -0.044454716 -0.0790306 0.0049394127 0.024697063 0.08890943 -0.029636476
0.0 0.009878825 -0.0395153 -0.009878825 -0.13830355 0.034575887 -0.16794004 -0.069151774
0.0 0.034575887 -0.034575887 0.009878825 -0.08397002 0.07409119 0.024697063 -0.009878825
-0.044454716 -0.17781886 0.059272952 0.0395153 0.08397002 0.054333538 0.0 -0.049394127
-0.014818238 -0.029636476 -0.034575887 0.01975765 0.118545905 0.0395153 -0.0790306 -0.0049394127
0.0395153 -0.0049394127 0.024697063 0.069151774 0.034575887 -0.034575887 -0.029636476 -0.09384884
-0.054333538 -0.0049394127 -0.07409119 0.0 -0.01975765 0.08397002 0.034575887 -0.069151774
-0.01975765 -0.0395153 0.009878825 0.059272952 0.01975765 0.0 -0.07409119 0.12842473
-0.029636476 0.034575887 0.0790306 0.0 -0.0049394127 -0.01975765 0.044454716 0.01975765
0.029636476 -0.0395153 -0.044454716 0.0 -0.024697063 -0.0395153 0.118545905 -0.054333538
0.08397002 -0.069151774 0.26672828 -0.059272952 0.23709181 0.34081948 -0.11360649 0.069151774
0.36057714 -0.13830355 0.098788254 -0.11360649 0.059272952 0.059272952 -0.029636476 -0.098788254
0.10372767 0.009878825 0.21733415 -0.11360649 -0.11360649 -0.054333538 -0.24697064 -0.009878825
0.17287944 -0.12348532 -0.08890943 -0.0049394127 -0.18275827 -0.044454716 -0.014818238 0.029636476
-0.12842473 -0.12842473 -0.13336414 -0.098788254 -0.14818238 0.07409119 -0.01975765 -0.08397002
0.0 -0.17287944 -0.054333538 -0.049394127 0.044454716 -0.12842473 -0.009878825 0.054333538
0.41491067 0.12348532 -0.009878825 -0.09384884 0.13336414 0.069151774 -0.16300061 -0.069151774
-0.0049394127 0.059272952 0.054333538 0.0 0.009878825 -0.07409119 0.0395153 -0.08397002
-0.06421237 -0.0049394127 0.0049394127 -0.0790306 0.054333538 0.024697063 0.26178887 0.08890943
0.014818238 -0.054333538 -0.18275827 -0.16300061 -0.024697063 0.0 -0.049394127 0.11360649
-0.07409119 0.054333538 -0.069151774 -0.108667076 0.029636476 0.009878825 -0.034575887 -0.01975765
00000000: e608 0807 f604 0d01 16fd 0dfb 06fa 05fd
00000010: e8f7 fa0a 2ff4 03f3 0afa 092c 29fa f712
00000020: f6fb 10fb f8ff ec01 0707 f300 12fa f80d
00000030: 0a07 f1fe fdf3 fc0b 0303 04ff 0a01 f708
00000040: 0f02 fd05 0c06 0008 0007 0f00 fc17 fd03
00000050: 0a14 f416 f7fb 1401 10f3 f7f0 0105 12fa
00000060: 0002 f8fe e407 def2 0007 f902 ef0f 05fe
00000070: f7dc 0c08 110b 00f6 fdfa f904 1808 f0ff
00000080: 08ff 050e 07f9 faed f5ff f100 fc11 07f2
00000090: fcf8 020c 0400 f11a fa07 1000 fffc 0904
000000a0: 06f8 f700 fbf8 18f5 11f2 36f4 3045 e90e
000000b0: 49e4 14e9 0c0c faec 1502 2ce9 e9f5 cefe
000000c0: 23e7 eeff dbf7 fd06 e6e6 e5ec e20f fcef
000000d0: 00dd f5f6 09e6 fe0b 5419 feed 1b0e dff2
000000e0: ff0c 0b00 02f1 08ef f3ff 01f0 0b05 3512
000000f0: 03f5 dbdf fb00 f617 f10b f2ea 0602 f9fc
