src/gallium/targets/teflon/tests/models/yolox/030.tflite (tflite, 5968 bytes, 1 tensors)

tfl.pseudo_qconst131 i1 [64, 1, 1, 64] scale=0.0172527 zero_point=0
00000000: f1f8 fcf0 07f1 f3fb f408 f609 2300 e103
00000010: 15d8 f5e3 e609 0df1 09fc ed03 07fe 23fe
00000020: e519 fbf1 18fe 01fa 0bf2 09e9 f615 e4f0
00000030: f8e2 0d09 0ef4 f5ea 0bfc 0509 f916 2ef6
00000040: fb0d 2c27 37f6 040f 0d00 fc10 100b 08f2
00000050: e915 01fa f20c 1000 ee0e 07f9 0006 0600
00000060: d9ff 1007 0f03 ecf8 1dce f6ee 01fe f7f4
00000070: 0cee f501 04f3 07fa ecfd 1b09 f6ef e4e7
00000080: e5f4 fdf1 f11e feeb e8de fc20 0cf5 0428
00000090: 0908 0fe8 d502 15e5 db07 e1ce 22e3 fe17
000000a0: 04f0 190e 10e9 f50b 0cf3 d613 dd06 06e6
000000b0: f5e5 fef6 ea17 06f7 680e 2210 c7f8 f9f2
000000c0: fffb f9fb f8fe ff08 0212 1ffa 0c3c e5ee
000000d0: e927 f9f4 10f0 f4f1 0ff3 fff4 1a13 1df9
000000e0: 0c0b fc01 19fd 30f2 fae8 f318 0f1a f1f3
000000f0: 16e0 15f6 edfc f8f4 f1f3 10f4 fc12 e3ef
-0.2587905 -0.1380216 -0.0690108 -0.2760432 0.120768905 -0.2587905 -0.22428511 -0.0862635
-0.20703241 0.1380216 -0.172527 0.1552743 0.6038445 0.0 -0.5348337 0.051758103
0.3623067 -0.690108 -0.1897797 -0.5003283 -0.44857022 0.1552743 0.22428511 -0.2587905
0.1552743 -0.0690108 -0.32780132 0.051758103 0.120768905 -0.0345054 0.6038445 -0.0345054
-0.4658229 0.4313175 -0.0862635 -0.2587905 0.41406482 -0.0345054 0.0172527 -0.103516206
0.1897797 -0.24153781 0.1552743 -0.3968121 -0.172527 0.3623067 -0.48307562 -0.2760432
-0.1380216 -0.517581 0.22428511 0.1552743 0.24153781 -0.20703241 -0.1897797 -0.3795594
0.1897797 -0.0690108 0.0862635 0.1552743 -0.120768905 0.3795594 0.7936242 -0.172527
-0.0862635 0.22428511 0.7591188 0.6728553 0.9488985 -0.172527 0.0690108 0.2587905
0.22428511 0.0 -0.0690108 0.2760432 0.2760432 0.1897797 0.1380216 -0.24153781
-0.3968121 0.3623067 0.0172527 -0.103516206 -0.24153781 0.20703241 0.2760432 0.0
-0.3105486 0.24153781 0.120768905 -0.120768905 0.0 0.103516206 0.103516206 0.0
-0.6728553 -0.0172527 0.2760432 0.120768905 0.2587905 0.051758103 -0.345054 -0.1380216
0.5003283 -0.862635 -0.172527 -0.3105486 0.0172527 -0.0345054 -0.1552743 -0.20703241
0.20703241 -0.3105486 -0.1897797 0.0172527 0.0690108 -0.22428511 0.120768905 -0.103516206
-0.345054 -0.051758103 0.4658229 0.1552743 -0.172527 -0.29329592 -0.48307562 -0.4313175
-0.4658229 -0.20703241 -0.051758103 -0.2587905 -0.2587905 0.517581 -0.0345054 -0.3623067
-0.41406482 -0.58659184 -0.0690108 0.5520864 0.20703241 -0.1897797 0.0690108 0.690108
0.1552743 0.1380216 0.2587905 -0.41406482 -0.7418661 0.0345054 0.3623067 -0.4658229
-0.6383499 0.120768905 -0.5348337 -0.862635 0.58659184 -0.5003283 -0.0345054 0.3968121
0.0690108 -0.2760432 0.4313175 0.24153781 0.2760432 -0.3968121 -0.1897797 0.1897797
0.20703241 -0.22428511 -0.7246134 0.32780132 -0.6038445 0.103516206 0.103516206 -0.44857022
-0.1897797 -0.4658229 -0.0345054 -0.172527 -0.3795594 0.3968121 0.103516206 -0.1552743
1.7942809 0.24153781 0.58659184 0.2760432 -0.9834039 -0.1380216 -0.120768905 -0.24153781
-0.0172527 -0.0862635 -0.120768905 -0.0862635 -0.1380216 -0.0345054 -0.0172527 0.1380216
0.0345054 0.3105486 0.5348337 -0.103516206 0.20703241 1.035162 -0.4658229 -0.3105486
-0.3968121 0.6728553 -0.120768905 -0.20703241 0.2760432 -0.2760432 -0.20703241 -0.2587905
0.2587905 -0.22428511 -0.0172527 -0.20703241 0.44857022 0.32780132 0.5003283 -0.120768905
0.20703241 0.1897797 -0.0690108 0.0172527 0.4313175 -0.051758103 0.82812965 -0.24153781
-0.103516206 -0.41406482 -0.22428511 0.41406482 0.2587905 0.44857022 -0.2587905 -0.22428511
0.3795594 -0.5520864 0.3623067 -0.172527 -0.32780132 -0.0690108 -0.1380216 -0.20703241
-0.2587905 -0.22428511 0.2760432 -0.20703241 -0.0690108 0.3105486 -0.5003283 -0.29329592
