src/gallium/targets/teflon/tests/models/yolox/033.tflite (tflite, 5808 bytes, 1 tensors)

tfl.pseudo_qconst127 i1 [64, 1, 1, 64] scale=0.00909348 zero_point=0
0	0xfe	-0.01818696
1	0x0f	0.1364022
2	0x1b	0.24552396
3	0x26	0.34555224
4	0x06	0.05456088
5	0xf0	-0.14549568
6	0x0e	0.12730873
7	0xfd	-0.02728044
8	0xeb	-0.19096309
9	0x17	0.20915005
10	0xe6	-0.23643048
11	0x35	0.48195446
12	0x18	0.21824352
13	0xf1	-0.1364022
14	0x05	0.0454674
15	0xc9	-0.5001414
16	0xf4	-0.10912176
17	0xee	-0.16368264
18	0xbd	-0.6092632
19	0xfe	-0.01818696
20	0xf0	-0.14549568
21	0xec	-0.1818696
22	0x12	0.16368264
23	0x00	0.0
24	0xc9	-0.5001414
25	0x20	0.29099137
26	0xfd	-0.02728044
27	0xf7	-0.08184132
28	0xd9	-0.35464573
29	0xfb	-0.0454674
30	0x11	0.15458916
31	0x1f	0.28189787
32	0xcf	-0.44558054
33	0xe1	-0.28189787
34	0xfa	-0.05456088
35	0xfb	-0.0454674
36	0x2d	0.4092066
37	0xbe	-0.6001697
38	0xeb	-0.19096309
39	0xf7	-0.08184132
40	0x2d	0.4092066
41	0xe6	-0.23643048
42	0xf4	-0.10912176
43	0x0a	0.0909348
44	0x00	0.0
45	0x0a	0.0909348
46	0xe7	-0.227337
47	0xf9	-0.06365436
48	0xee	-0.16368264
49	0x0e	0.12730873
50	0xfa	-0.05456088
51	0x0e	0.12730873
52	0x12	0.16368264
53	0x0f	0.1364022
54	0x22	0.30917832
55	0x04	0.03637392
56	0x62	0.8911611
57	0x0b	0.100028284
58	0x0e	0.12730873
59	0x07	0.06365436
60	0xec	-0.1818696
61	0xf9	-0.06365436
62	0x0d	0.11821524
63	0xed	-0.17277612
64	0xea	-0.20005657
65	0x0a	0.0909348
66	0x02	0.01818696
67	0xdc	-0.32736528
68	0x09	0.08184132
69	0xfc	-0.03637392
70	0xfd	-0.02728044
71	0xf0	-0.14549568
72	0xf2	-0.12730873
73	0xfd	-0.02728044
74	0x07	0.06365436
75	0x04	0.03637392
76	0xf2	-0.12730873
77	0xfa	-0.05456088
78	0x18	0.21824352
79	0x19	0.227337
80	0x1d	0.26371092
81	0xe7	-0.227337
82	0xf0	-0.14549568
83	0xec	-0.1818696
84	0xf6	-0.0909348
85	0x45	0.6274501
86	0xe9	-0.20915005
87	0xff	-0.00909348
88	0x1a	0.23643048
89	0xe9	-0.20915005
90	0x45	0.6274501
91	0xfb	-0.0454674
92	0xf2	-0.12730873
93	0x00	0.0
94	0x09	0.08184132
95	0xf0	-0.14549568
96	0x01	0.00909348
97	0xcf	-0.44558054
98	0xde	-0.30917832
99	0x03	0.02728044
100	0xf6	-0.0909348
101	0xd3	-0.4092066
102	0x08	0.07274784
103	0xf1	-0.1364022
104	0xfe	-0.01818696
105	0xf1	-0.1364022
106	0xf0	-0.14549568
107	0xfd	-0.02728044
108	0xe5	-0.24552396
109	0xf3	-0.11821524
110	0xef	-0.15458916
111	0x03	0.02728044
112	0xfc	-0.03637392
113	0x04	0.03637392
114	0x17	0.20915005
115	0xe6	-0.23643048
116	0x36	0.49104792
117	0xf3	-0.11821524
118	0xf6	-0.0909348
119	0x13	0.17277612
120	0x32	0.454674
121	0x0e	0.12730873
122	0xda	-0.34555224
123	0x0f	0.1364022
124	0x15	0.19096309
125	0xf3	-0.11821524
126	0xf8	-0.07274784
127	0xd6	-0.38192618
128	0xe6	-0.23643048
129	0xe6	-0.23643048
130	0xf8	-0.07274784
131	0xf4	-0.10912176
132	0x12	0.16368264
133	0x22	0.30917832
134	0xf1	-0.1364022
135	0xef	-0.15458916
136	0xde	-0.30917832
137	0xe5	-0.24552396
138	0xdd	-0.31827182
139	0xfd	-0.02728044
140	0xfa	-0.05456088
141	0xf3	-0.11821524
142	0x1e	0.2728044
143	0xfa	-0.05456088
144	0xfa	-0.05456088
145	0xdb	-0.33645877
146	0xf6	-0.0909348
147	0xf4	-0.10912176
148	0xdc	-0.32736528
149	0xea	-0.20005657
150	0x1a	0.23643048
151	0x07	0.06365436
152	0xe9	-0.20915005
153	0x01	0.00909348
154	0xe8	-0.21824352
155	0x21	0.30008486
156	0xd6	-0.38192618
157	0xf1	-0.1364022
158	0x35	0.48195446
159	0xc8	-0.5092349
160	0x13	0.17277612
161	0x20	0.29099137
162	0x24	0.32736528
163	0xf2	-0.12730873
164	0xfb	-0.0454674
165	0xc1	-0.57288927
166	0x1b	0.24552396
167	0xfd	-0.02728044
168	0x27	0.35464573
169	0xfb	-0.0454674
170	0x12	0.16368264
171	0xf7	-0.08184132
172	0xfe	-0.01818696
173	0xef	-0.15458916
174	0xe7	-0.227337
175	0x49	0.6638241
176	0xff	-0.00909348
177	0x00	0.0
178	0x14	0.1818696
179	0xf4	-0.10912176
180	0xfe	-0.01818696
181	0x03	0.02728044
182	0xe8	-0.21824352
183	0xf5	-0.100028284
184	0x31	0.44558054
185	0x12	0.16368264
186	0x0d	0.11821524
187	0xe0	-0.29099137
188	0xfd	-0.02728044
189	0xec	-0.1818696
190	0xf6	-0.0909348
191	0xd7	-0.3728327
192	0x4d	0.700198
193	0xea	-0.20005657
194	0x03	0.02728044
195	0xf8	-0.07274784
196	0xf5	-0.100028284
197	0xee	-0.16368264
198	0xdf	-0.30008486
199	0xea	-0.20005657
200	0xd0	-0.43648705
201	0x06	0.05456088
202	0x0a	0.0909348
203	0xf0	-0.14549568
204	0xed	-0.17277612
205	0xf3	-0.11821524
206	0x00	0.0
207	0xf9	-0.06365436
208	0x60	0.8729741
209	0x09	0.08184132
210	0x28	0.3637392
211	0xfb	-0.0454674
212	0xd8	-0.3637392
213	0xe9	-0.20915005
214	0xe5	-0.24552396
215	0x01	0.00909348
216	0x1d	0.26371092
217	0xf1	-0.1364022
218	0xec	-0.1818696
219	0x1d	0.26371092
220	0xe5	-0.24552396
221	0xdd	-0.31827182
222	0x02	0.01818696
223	0x1a	0.23643048
224	0x1b	0.24552396
225	0xe5	-0.24552396
226	0x14	0.1818696
227	0x13	0.17277612
228	0x22	0.30917832
229	0x0e	0.12730873
230	0x13	0.17277612
231	0x00	0.0
232	0xf2	-0.12730873
233	0xdc	-0.32736528
234	0xd8	-0.3637392
235	0x0e	0.12730873
236	0xe8	-0.21824352
237	0x66	0.927535
238	0x0f	0.1364022
239	0xe0	-0.29099137
240	0xf2	-0.12730873
241	0xfa	-0.05456088
242	0xfe	-0.01818696
243	0xf2	-0.12730873
244	0xe2	-0.2728044
245	0x12	0.16368264
246	0x00	0.0
247	0xf7	-0.08184132
248	0xf1	-0.1364022
249	0x06	0.05456088
250	0x05	0.0454674
251	0xe0	-0.29099137
252	0x17	0.20915005
253	0xef	-0.15458916
254	0xf2	-0.12730873
255	0x14	0.1818696
