src/gallium/targets/teflon/tests/models/yolox/052.tflite (tflite, 133552 bytes, 1 tensors)

tfl.pseudo_qconst111 i1 [256, 1, 1, 512] scale=0.0057815756 zero_point=0
000000 10 01 09 f9 07 ed ff f7 f8 03 0d f2 0b f8 08 fb
       0.09250521 0.0057815756 0.05203418 -0.04047103 0.04047103 -0.10984994 -0.0057815756 -0.05203418 -0.046252605 0.017344726 0.07516048 -0.08094206 0.06359733 -0.046252605 0.046252605 -0.028907878
000010 e7 08 fd 00 03 03 03 de 0a 04 01 f5 f7 fc 10 0d
       -0.14453939 0.046252605 -0.017344726 0.0 0.017344726 0.017344726 0.017344726 -0.19657357 0.057815757 0.023126302 0.0057815756 -0.06359733 -0.05203418 -0.023126302 0.09250521 0.07516048
000020 ff fb f9 f9 07 fe 0b f4 03 00 07 11 06 f7 fe 0c
       -0.0057815756 -0.028907878 -0.04047103 -0.04047103 0.04047103 -0.011563151 0.06359733 -0.069378905 0.017344726 0.0 0.04047103 0.098286785 0.034689452 -0.05203418 -0.011563151 0.069378905
000030 03 fe 01 04 14 f0 f4 04 fc fc f7 f5 0b fe fa 09
       0.017344726 -0.011563151 0.0057815756 0.023126302 0.11563151 -0.09250521 -0.069378905 0.023126302 -0.023126302 -0.023126302 -0.05203418 -0.06359733 0.06359733 -0.011563151 -0.034689452 0.05203418
000040 fa 09 09 f7 00 05 f5 0b 06 01 20 0b f2 00 ff f3
       -0.034689452 0.05203418 0.05203418 -0.05203418 0.0 0.028907878 -0.06359733 0.06359733 0.034689452 0.0057815756 0.18501042 0.06359733 -0.08094206 0.0 -0.0057815756 -0.07516048
000050 05 f7 04 04 f8 00 16 05 f6 0c 05 f7 0d ff 11 f1
       0.028907878 -0.05203418 0.023126302 0.023126302 -0.046252605 0.0 0.12719466 0.028907878 -0.057815757 0.069378905 0.028907878 -0.05203418 0.07516048 -0.0057815756 0.098286785 -0.08672363
000060 0a 13 fe 0f 13 03 f6 fc 21 11 12 f8 f3 05 05 f0
       0.057815757 0.10984994 -0.011563151 0.08672363 0.10984994 0.017344726 -0.057815757 -0.023126302 0.190792 0.098286785 0.10406836 -0.046252605 -0.07516048 0.028907878 0.028907878 -0.09250521
000070 fe f7 0c 0d f9 fd fc f1 07 04 f6 ef 04 02 f7 03
       -0.011563151 -0.05203418 0.069378905 0.07516048 -0.04047103 -0.017344726 -0.023126302 -0.08672363 0.04047103 0.023126302 -0.057815757 -0.098286785 0.023126302 0.011563151 -0.05203418 0.017344726
000080 ff fd 07 03 0a 01 00 02 03 02 04 fd 06 01 07 03
       -0.0057815756 -0.017344726 0.04047103 0.017344726 0.057815757 0.0057815756 0.0 0.011563151 0.017344726 0.011563151 0.023126302 -0.017344726 0.034689452 0.0057815756 0.04047103 0.017344726
000090 03 ff 0d ff 00 fe 0a f8 04 fc fc 02 fb 03 0b 0b
       0.017344726 -0.0057815756 0.07516048 -0.0057815756 0.0 -0.011563151 0.057815757 -0.046252605 0.023126302 -0.023126302 -0.023126302 0.011563151 -0.028907878 0.017344726 0.06359733 0.06359733
0000a0 03 ff 0d fc f4 01 06 fd 02 05 0c f1 fa 03 03 05
       0.017344726 -0.0057815756 0.07516048 -0.023126302 -0.069378905 0.0057815756 0.034689452 -0.017344726 0.011563151 0.028907878 0.069378905 -0.08672363 -0.034689452 0.017344726 0.017344726 0.028907878
0000b0 fb 0e fb 05 10 00 01 00 05 06 06 05 fb 00 f8 0a
       -0.028907878 0.08094206 -0.028907878 0.028907878 0.09250521 0.0 0.0057815756 0.0 0.028907878 0.034689452 0.034689452 0.028907878 -0.028907878 0.0 -0.046252605 0.057815757
0000c0 f3 fc f7 f6 ff 02 0a 07 f8 03 02 06 10 01 ff 01
       -0.07516048 -0.023126302 -0.05203418 -0.057815757 -0.0057815756 0.011563151 0.057815757 0.04047103 -0.046252605 0.017344726 0.011563151 0.034689452 0.09250521 0.0057815756 -0.0057815756 0.0057815756
0000d0 fd 02 00 06 f9 01 07 0b 0c 05 f1 f6 06 01 03 01
       -0.017344726 0.011563151 0.0 0.034689452 -0.04047103 0.0057815756 0.04047103 0.06359733 0.069378905 0.028907878 -0.08672363 -0.057815757 0.034689452 0.0057815756 0.017344726 0.0057815756
0000e0 04 06 04 f9 07 ff fe fd 1d 07 04 f9 f3 f9 f4 02
       0.023126302 0.034689452 0.023126302 -0.04047103 0.04047103 -0.0057815756 -0.011563151 -0.017344726 0.16766569 0.04047103 0.023126302 -0.04047103 -0.07516048 -0.04047103 -0.069378905 0.011563151
0000f0 00 fb fc 08 05 00 03 f2 f9 f9 fd fc 00 fc 02 fe
       0.0 -0.028907878 -0.023126302 0.046252605 0.028907878 0.0 0.017344726 -0.08094206 -0.04047103 -0.04047103 -0.017344726 -0.023126302 0.0 -0.023126302 0.011563151 -0.011563151
