src/gallium/targets/teflon/tests/models/yolox/053.tflite (tflite, 34896 bytes, 1 tensors)

tfl.pseudo_qconst109 i1 [128, 1, 1, 256] scale=0.010339006 zero_point=0
0.010339006 -0.010339006 0.031017017 0.08271205 -0.041356023 -0.08271205 -0.09305105 0.22745813
0.11372907 -0.10339006 -0.041356023 0.010339006 -0.10339006 0.020678012 -0.010339006 -0.010339006
-0.08271205 0.08271205 0.010339006 0.11372907 0.031017017 0.020678012 0.020678012 -0.12406807
-0.1654241 0.010339006 -0.031017017 -0.020678012 0.041356023 -0.010339006 -0.031017017 0.031017017
-0.041356023 0.0 -0.031017017 0.09305105 -0.05169503 0.07237304 -0.041356023 0.031017017
0.08271205 0.09305105 0.041356023 -0.031017017 -0.11372907 0.062034033 0.08271205 -0.020678012
0.0 -0.07237304 -0.05169503 -0.031017017 -0.062034033 0.010339006 -0.041356023 0.031017017
-0.020678012 -0.08271205 0.062034033 -0.08271205 -0.020678012 0.062034033 -0.19644111 -0.10339006
0.13440707 0.010339006 -0.041356023 -0.020678012 0.07237304 0.062034033 -0.05169503 0.062034033
-0.020678012 -0.062034033 -0.07237304 -0.020678012 0.0 0.0 -0.09305105 -0.020678012
0.041356023 -0.09305105 0.020678012 -0.010339006 -0.05169503 0.062034033 -0.062034033 -0.07237304
-0.041356023 -0.05169503 -0.010339006 -0.062034033 -0.031017017 -0.10339006 -0.020678012 -0.062034033
-0.09305105 0.041356023 0.0 -0.041356023 0.05169503 -0.08271205 -0.10339006 0.09305105
-0.07237304 -0.14474608 0.0 -0.11372907 0.020678012 0.0 0.0 0.0
-0.020678012 -0.11372907 0.010339006 0.041356023 -0.010339006 -0.010339006 -0.07237304 0.05169503
0.020678012 0.0 -0.08271205 -0.08271205 -0.010339006 -0.10339006 -0.08271205 0.0
0.0 -0.010339006 0.0 0.020678012 0.020678012 0.0 0.010339006 -0.12406807
0.062034033 0.020678012 0.010339006 -0.010339006 0.0 -0.020678012 0.041356023 0.07237304
-0.020678012 0.020678012 0.0 -0.062034033 0.07237304 -0.041356023 0.07237304 0.041356023
0.05169503 0.05169503 0.062034033 -0.09305105 0.041356023 0.07237304 -0.12406807 0.010339006
0.08271205 0.010339006 0.05169503 -0.062034033 -0.05169503 0.08271205 -0.062034033 0.062034033
0.020678012 0.010339006 -0.062034033 -0.010339006 0.0 -0.031017017 -0.010339006 -0.08271205
-0.062034033 -0.08271205 0.031017017 -0.1757631 -0.08271205 -0.010339006 0.11372907 0.020678012
0.12406807 0.031017017 0.05169503 -0.07237304 -0.05169503 -0.041356023 -0.010339006 0.062034033
-0.07237304 0.0 0.031017017 0.020678012 -0.05169503 -0.05169503 -0.031017017 0.010339006
0.010339006 0.13440707 0.12406807 0.07237304 0.020678012 -0.11372907 -0.05169503 -0.05169503
0.020678012 0.0 0.010339006 0.010339006 -0.010339006 0.07237304 -0.062034033 -0.020678012
0.041356023 0.10339006 0.0 0.11372907 0.010339006 0.010339006 -0.10339006 0.020678012
0.041356023 0.041356023 0.09305105 -0.010339006 0.062034033 0.07237304 0.11372907 0.27915317
-0.041356023 0.041356023 -0.010339006 0.0 0.07237304 0.0 -0.07237304 0.041356023
0.020678012 -0.010339006 -0.041356023 -0.020678012 -0.07237304 -0.041356023 0.48593327 0.020678012
0.07237304 -0.020678012 -0.031017017 0.0 0.041356023 0.010339006 -0.041356023 -0.020678012
00000000: 01ff 0308 fcf8 f716 0bf6 fc01 f602 ffff
00000010: f808 010b 0302 02f4 f001 fdfe 04ff fd03
00000020: fc00 fd09 fb07 fc03 0809 04fd f506 08fe
00000030: 00f9 fbfd fa01 fc03 fef8 06f8 fe06 edf6
00000040: 0d01 fcfe 0706 fb06 fefa f9fe 0000 f7fe
00000050: 04f7 02ff fb06 faf9 fcfb fffa fdf6 fefa
00000060: f704 00fc 05f8 f609 f9f2 00f5 0200 0000
00000070: fef5 0104 ffff f905 0200 f8f8 fff6 f800
00000080: 00ff 0002 0200 01f4 0602 01ff 00fe 0407
00000090: fe02 00fa 07fc 0704 0505 06f7 0407 f401
000000a0: 0801 05fa fb08 fa06 0201 faff 00fd fff8
000000b0: faf8 03ef f8ff 0b02 0c03 05f9 fbfc ff06
000000c0: f900 0302 fbfb fd01 010d 0c07 02f5 fbfb
000000d0: 0200 0101 ff07 fafe 040a 000b 0101 f602
000000e0: 0404 09ff 0607 0b1b fc04 ff00 0700 f904
000000f0: 02ff fcfe f9fc 2f02 07fe fd00 0401 fcfe
