src/gallium/targets/teflon/tests/models/yolox/054.tflite (tflite, 18512 bytes, 1 tensors)

tfl.pseudo_qconst107 i1 [128, 1, 1, 128] scale=0.009436178 zero_point=0
00000000: f9e4 ecf7 0ff8 fa0b 0007 fff4 ee0d eaf9
00000010: eaf3 faea 00fb f4d7 0109 fef3 08f1 e90d
00000020: 0901 eb13 16f1 020a faf2 fa12 1303 2007
00000030: ff03 0b00 f208 f5fb f016 ee04 e600 fe1d
00000040: 00fc fbfa f10c 07f9 dbe5 f301 01ea f500
00000050: fef3 db20 1c02 f813 f703 0a00 ff08 f4ff
00000060: 02e8 14f1 0d0a 0304 0cf4 0013 f61a f70d
00000070: 0c00 f4fa e20f f8fc 1805 0407 fff2 f608
00000080: f9fb f209 0a01 f61a f9ea 0108 0810 f5f6
00000090: 01ee 0925 e7fd f7fd 00df 09f6 f2f0 210a
000000a0: f3fb f717 ea14 0bfe 1eef 0e0b 0200 e500
000000b0: fe1b 0013 11ff d50b f615 fc0c f709 0913
000000c0: 1b0e f004 0008 ee14 fee0 f6f2 f206 f9f9
000000d0: fa05 001f 02fa fdfc 0df4 fdf7 fbe4 e9d4
000000e0: da03 0614 ecf3 ea04 f40a f602 1000 101a
000000f0: f818 fa17 de04 e125 08fe ef0f 07f0 21f7
-0.06605325 -0.264213 -0.18872356 -0.0849256 0.14154267 -0.075489424 -0.056617066 0.10379796
0.0 0.06605325 -0.009436178 -0.11323413 -0.1698512 0.122670315 -0.20759591 -0.06605325
-0.20759591 -0.122670315 -0.056617066 -0.20759591 0.0 -0.04718089 -0.11323413 -0.3868833
0.009436178 0.0849256 -0.018872356 -0.122670315 0.075489424 -0.14154267 -0.21703209 0.122670315
0.0849256 0.009436178 -0.19815974 0.17928739 0.20759591 -0.14154267 0.018872356 0.09436178
-0.056617066 -0.1321065 -0.056617066 0.1698512 0.17928739 0.028308533 0.3019577 0.06605325
-0.009436178 0.028308533 0.10379796 0.0 -0.1321065 0.075489424 -0.10379796 -0.04718089
-0.15097885 0.20759591 -0.1698512 0.037744712 -0.24534063 0.0 -0.018872356 0.27364916
0.0 -0.037744712 -0.04718089 -0.056617066 -0.14154267 0.11323413 0.06605325 -0.06605325
-0.3491386 -0.2547768 -0.122670315 0.009436178 0.009436178 -0.20759591 -0.10379796 0.0
-0.018872356 -0.122670315 -0.3491386 0.3019577 0.264213 0.018872356 -0.075489424 0.17928739
-0.0849256 0.028308533 0.09436178 0.0 -0.009436178 0.075489424 -0.11323413 -0.009436178
0.018872356 -0.22646827 0.18872356 -0.14154267 0.122670315 0.09436178 0.028308533 0.037744712
0.11323413 -0.11323413 0.0 0.17928739 -0.09436178 0.24534063 -0.0849256 0.122670315
0.11323413 0.0 -0.11323413 -0.056617066 -0.28308535 0.14154267 -0.075489424 -0.037744712
0.22646827 0.04718089 0.037744712 0.06605325 -0.009436178 -0.1321065 -0.09436178 0.075489424
-0.06605325 -0.04718089 -0.1321065 0.0849256 0.09436178 0.009436178 -0.09436178 0.24534063
-0.06605325 -0.20759591 0.009436178 0.075489424 0.075489424 0.15097885 -0.10379796 -0.09436178
0.009436178 -0.1698512 0.0849256 0.3491386 -0.23590446 -0.028308533 -0.0849256 -0.028308533
0.0 -0.3113939 0.0849256 -0.09436178 -0.1321065 -0.15097885 0.3113939 0.09436178
-0.122670315 -0.04718089 -0.0849256 0.21703209 -0.20759591 0.18872356 0.10379796 -0.018872356
0.28308535 -0.16041502 0.1321065 0.10379796 0.018872356 0.0 -0.2547768 0.0
-0.018872356 0.2547768 0.0 0.17928739 0.16041502 -0.009436178 -0.40575567 0.10379796
-0.09436178 0.19815974 -0.037744712 0.11323413 -0.0849256 0.0849256 0.0849256 0.17928739
0.2547768 0.1321065 -0.15097885 0.037744712 0.0 0.075489424 -0.1698512 0.18872356
-0.018872356 -0.3019577 -0.09436178 -0.1321065 -0.1321065 0.056617066 -0.06605325 -0.06605325
-0.056617066 0.04718089 0.0 0.2925215 0.018872356 -0.056617066 -0.028308533 -0.037744712
0.122670315 -0.11323413 -0.028308533 -0.0849256 -0.04718089 -0.264213 -0.21703209 -0.41519183
-0.35857478 0.028308533 0.056617066 0.18872356 -0.18872356 -0.122670315 -0.20759591 0.037744712
-0.11323413 0.09436178 -0.09436178 0.018872356 0.15097885 0.0 0.15097885 0.24534063
-0.075489424 0.22646827 -0.056617066 0.21703209 -0.32083005 0.037744712 -0.2925215 0.3491386
0.075489424 -0.018872356 -0.16041502 0.14154267 0.06605325 -0.15097885 0.3113939 -0.0849256
