src/gallium/targets/teflon/tests/models/yolox/056.tflite (tflite, 34896 bytes, 1 tensors)

tfl.pseudo_qconst103 i1 [128, 1, 1, 256] scale=0.009200485 zero_point=0
00000000: fef6 04f6 15fb 05ff f310 ecf7 f8f1 ecfe
00000010: fd0e 0bfa ee01 f304 f504 fcf9 f505 020c
00000020: 0512 f600 f8fd f200 fd0a 10f7 eeff 070a
00000030: f207 f003 09f6 04f4 fa13 0115 05f9 fb00
00000040: 1000 fff1 0809 eb09 f012 edf8 fcf8 fc05
00000050: f1f7 0cfb 04fe ff06 06f1 f3ee 03fe f412
00000060: 040c f2ff fa08 f9f4 eef9 fb03 fb06 f703
00000070: f309 0603 fdeb 2100 0009 000b 0e03 f1f8
00000080: f600 0fff fb0a fe0a ef01 f606 f5f5 2502
00000090: 0cf7 0208 0402 00ff f313 0c02 0c18 fdff
000000a0: fff0 0011 0dfb f0f9 0701 f303 f9f0 000a
000000b0: ef01 f90c 0504 0a08 fc11 f7f7 fd0c fafe
000000c0: 05f5 fd1a ff0e f600 fcfd 0612 f0f7 e404
000000d0: 00ef 08f4 f9f9 0b09 fcec f6f2 0001 f5fc
000000e0: 0601 00fd 0904 0cfa 10f8 0101 fe0c 0705
000000f0: fefe f4f7 0801 f9e8 fffe ee00 f8f7 0006
-0.01840097 -0.09200485 0.03680194 -0.09200485 0.1932102 -0.046002425 0.046002425 -0.009200485
-0.11960631 0.14720777 -0.1840097 -0.08280437 -0.07360388 -0.13800728 -0.1840097 -0.01840097
-0.027601456 0.1288068 0.10120534 -0.055202913 -0.16560873 0.009200485 -0.11960631 0.03680194
-0.10120534 0.03680194 -0.03680194 -0.0644034 -0.10120534 0.046002425 0.01840097 0.110405825
0.046002425 0.16560873 -0.09200485 0.0 -0.07360388 -0.027601456 -0.1288068 0.0
-0.027601456 0.09200485 0.14720777 -0.08280437 -0.16560873 -0.009200485 0.0644034 0.09200485
-0.1288068 0.0644034 -0.14720777 0.027601456 0.08280437 -0.09200485 0.03680194 -0.110405825
-0.055202913 0.17480922 0.009200485 0.1932102 0.046002425 -0.0644034 -0.046002425 0.0
0.14720777 0.0 -0.009200485 -0.13800728 0.07360388 0.08280437 -0.1932102 0.08280437
-0.14720777 0.16560873 -0.17480922 -0.07360388 -0.03680194 -0.07360388 -0.03680194 0.046002425
-0.13800728 -0.08280437 0.110405825 -0.046002425 0.03680194 -0.01840097 -0.009200485 0.055202913
0.055202913 -0.13800728 -0.11960631 -0.16560873 0.027601456 -0.01840097 -0.110405825 0.16560873
0.03680194 0.110405825 -0.1288068 -0.009200485 -0.055202913 0.07360388 -0.0644034 -0.110405825
-0.16560873 -0.0644034 -0.046002425 0.027601456 -0.046002425 0.055202913 -0.08280437 0.027601456
-0.11960631 0.08280437 0.055202913 0.027601456 -0.027601456 -0.1932102 0.30361602 0.0
0.0 0.08280437 0.0 0.10120534 0.1288068 0.027601456 -0.13800728 -0.07360388
-0.09200485 0.0 0.13800728 -0.009200485 -0.046002425 0.09200485 -0.01840097 0.09200485
-0.15640825 0.009200485 -0.09200485 0.055202913 -0.10120534 -0.10120534 0.34041795 0.01840097
0.110405825 -0.08280437 0.01840097 0.07360388 0.03680194 0.01840097 0.0 -0.009200485
-0.11960631 0.17480922 0.110405825 0.01840097 0.110405825 0.22081165 -0.027601456 -0.009200485
-0.009200485 -0.14720777 0.0 0.15640825 0.11960631 -0.046002425 -0.14720777 -0.0644034
0.0644034 0.009200485 -0.11960631 0.027601456 -0.0644034 -0.14720777 0.0 0.09200485
-0.15640825 0.009200485 -0.0644034 0.110405825 0.046002425 0.03680194 0.09200485 0.07360388
-0.03680194 0.15640825 -0.08280437 -0.08280437 -0.027601456 0.110405825 -0.055202913 -0.01840097
0.046002425 -0.10120534 -0.027601456 0.23921262 -0.009200485 0.1288068 -0.09200485 0.0
-0.03680194 -0.027601456 0.055202913 0.16560873 -0.14720777 -0.08280437 -0.2576136 0.03680194
0.0 -0.15640825 0.07360388 -0.110405825 -0.0644034 -0.0644034 0.10120534 0.08280437
-0.03680194 -0.1840097 -0.09200485 -0.1288068 0.0 0.009200485 -0.10120534 -0.03680194
0.055202913 0.009200485 0.0 -0.027601456 0.08280437 0.03680194 0.110405825 -0.055202913
0.14720777 -0.07360388 0.009200485 0.009200485 -0.01840097 0.110405825 0.0644034 0.046002425
-0.01840097 -0.01840097 -0.110405825 -0.08280437 0.07360388 0.009200485 -0.0644034 -0.22081165
-0.009200485 -0.01840097 -0.16560873 0.0 -0.07360388 -0.08280437 0.0 0.055202913
