src/gallium/targets/teflon/tests/models/yolox/058.tflite (tflite, 68016 bytes, 1 tensors)

tfl.pseudo_qconst101 i1 [256, 1, 1, 256] scale=0.00846411 zero_point=0
00000000: fc02 0cef f8f3 0cee fcff fd01 15f1 dc14
00000010: f0fa fdfe f8f2 1ff8 fa0d 092c 05ff 1df6
00000020: 2cf6 f3dc eafc fbfa 1cf5 071d f802 d9ee
00000030: f6e0 01f6 f5f6 00eb f2ea f5ec fdef f5fa
00000040: f50a fdf8 f8fd 01e5 fcf8 061d 11f2 ea07
00000050: 1f03 fc00 fc05 fafb 11ee f30a f910 e9f1
00000060: ff0f 04e6 18e4 16ef e9f4 f6fe 16f4 e8f3
00000070: e9f5 f61e f2f9 f7f0 ce00 efee 05e3 f7e1
00000080: ef03 0616 feff 1ef5 03fe fc04 ffef 0110
00000090: f206 0efc fdf9 f826 0604 fff0 0200 f8f4
000000a0: f404 f005 01ff 150f f8f8 fd1d f105 03fb
000000b0: f2f7 1403 fff5 0a16 fff8 fbff ff04 f604
000000c0: f203 fe05 03fd 09f7 f2f6 f8fe 06ff ed0a
000000d0: ff0a f608 01ee fbfd f6f9 14ff fef5 f1ff
000000e0: fef0 0df5 0804 f708 0b0b fb09 05f6 0bf1
000000f0: fd09 03fe fdff 0be5 0afa 0504 0dfb fbf7
-0.03385644 0.01692822 0.101569325 -0.14388987 -0.06771288 -0.11003343 0.101569325 -0.15235399
-0.03385644 -0.00846411 -0.025392331 0.00846411 0.17774631 -0.12696165 -0.30470797 0.1692822
-0.13542576 -0.050784662 -0.025392331 -0.01692822 -0.06771288 -0.11849754 0.26238742 -0.06771288
-0.050784662 0.11003343 0.07617699 0.37242085 0.04232055 -0.00846411 0.2454592 -0.0846411
0.37242085 -0.0846411 -0.11003343 -0.30470797 -0.18621042 -0.03385644 -0.04232055 -0.050784662
0.23699509 -0.09310521 0.05924877 0.2454592 -0.06771288 0.01692822 -0.3301003 -0.15235399
-0.0846411 -0.27085152 0.00846411 -0.0846411 -0.09310521 -0.0846411 0.0 -0.17774631
-0.11849754 -0.18621042 -0.09310521 -0.1692822 -0.025392331 -0.14388987 -0.09310521 -0.050784662
-0.09310521 0.0846411 -0.025392331 -0.06771288 -0.06771288 -0.025392331 0.00846411 -0.22853097
-0.03385644 -0.06771288 0.050784662 0.2454592 0.14388987 -0.11849754 -0.18621042 0.05924877
0.26238742 0.025392331 -0.03385644 0.0 -0.03385644 0.04232055 -0.050784662 -0.04232055
0.14388987 -0.15235399 -0.11003343 0.0846411 -0.05924877 0.13542576 -0.19467454 -0.12696165
-0.00846411 0.12696165 0.03385644 -0.22006686 0.20313865 -0.23699509 0.18621042 -0.14388987
-0.19467454 -0.101569325 -0.0846411 -0.01692822 0.18621042 -0.101569325 -0.20313865 -0.11003343
-0.19467454 -0.09310521 -0.0846411 0.2539233 -0.11849754 -0.05924877 -0.07617699 -0.13542576
-0.4232055 0.0 -0.14388987 -0.15235399 0.04232055 -0.2454592 -0.07617699 -0.26238742
-0.14388987 0.025392331 0.050784662 0.18621042 -0.01692822 -0.00846411 0.2539233 -0.09310521
0.025392331 -0.01692822 -0.03385644 0.03385644 -0.00846411 -0.14388987 0.00846411 0.13542576
-0.11849754 0.050784662 0.11849754 -0.03385644 -0.025392331 -0.05924877 -0.06771288 0.32163617
0.050784662 0.03385644 -0.00846411 -0.13542576 0.01692822 0.0 -0.06771288 -0.101569325
-0.101569325 0.03385644 -0.13542576 0.04232055 0.00846411 -0.00846411 0.17774631 0.12696165
-0.06771288 -0.06771288 -0.025392331 0.2454592 -0.12696165 0.04232055 0.025392331 -0.04232055
-0.11849754 -0.07617699 0.1692822 0.025392331 -0.00846411 -0.09310521 0.0846411 0.18621042
-0.00846411 -0.06771288 -0.04232055 -0.00846411 -0.00846411 0.03385644 -0.0846411 0.03385644
-0.11849754 0.025392331 -0.01692822 0.04232055 0.025392331 -0.025392331 0.07617699 -0.07617699
-0.11849754 -0.0846411 -0.06771288 -0.01692822 0.050784662 -0.00846411 -0.16081809 0.0846411
-0.00846411 0.0846411 -0.0846411 0.06771288 0.00846411 -0.15235399 -0.04232055 -0.025392331
-0.0846411 -0.05924877 0.1692822 -0.00846411 -0.01692822 -0.09310521 -0.12696165 -0.00846411
-0.01692822 -0.13542576 0.11003343 -0.09310521 0.06771288 0.03385644 -0.07617699 0.06771288
0.09310521 0.09310521 -0.04232055 0.07617699 0.04232055 -0.0846411 0.09310521 -0.12696165
-0.025392331 0.07617699 0.025392331 -0.01692822 -0.025392331 -0.00846411 0.09310521 -0.22853097
0.0846411 -0.050784662 0.04232055 0.03385644 0.11003343 -0.04232055 -0.04232055 -0.07617699
