src/gallium/targets/teflon/tests/models/yolox/059.tflite (tflite, 34880 bytes, 1 tensors)

tfl.pseudo_qconst99 i1 [128, 1, 1, 256] scale=0.0071776314 zero_point=0
0.08613157 -0.043065786 -0.12919736 0.014355263 0.078953944 0.0071776314 0.043065786 0.10048684
0.078953944 0.021532893 0.08613157 -0.021532893 -0.078953944 -0.136375 -0.08613157 -0.08613157
0.0 0.17944078 0.014355263 0.043065786 -0.05742105 0.18661842 0.15790789 -0.05742105
0.021532893 -0.15073025 0.071776316 -0.014355263 -0.071776316 -0.10766447 -0.3229934 0.08613157
-0.035888158 0.05024342 -0.17944078 0.09330921 -0.1148421 0.2296842 0.071776316 0.08613157
-0.06459868 0.09330921 0.021532893 0.014355263 -0.05742105 0.028710525 0.08613157 -0.08613157
0.06459868 -0.078953944 -0.05024342 0.078953944 -0.09330921 -0.05742105 0.021532893 0.0
0.035888158 0.06459868 -0.05742105 0.021532893 -0.136375 0.05024342 -0.12919736 -0.071776316
-0.20815131 0.10048684 0.10766447 0.078953944 0.014355263 0.09330921 -0.035888158 0.05024342
-0.05024342 0.078953944 -0.05742105 0.12201973 0.071776316 -0.1148421 -0.06459868 -0.043065786
-0.071776316 0.028710525 -0.071776316 0.05742105 0.23686184 -0.08613157 -0.15073025 -0.10048684
-0.05024342 0.1148421 0.035888158 -0.021532893 -0.05742105 0.09330921 -0.10766447 -0.10766447
0.05024342 0.0071776314 -0.028710525 0.18661842 -0.014355263 -0.16508552 0.21532895 0.10766447
-0.05742105 -0.24403946 -0.18661842 -0.035888158 -0.028710525 -0.15790789 0.028710525 -0.021532893
0.136375 -0.08613157 -0.08613157 0.0 0.14355263 0.0 -0.071776316 0.071776316
0.16508552 -0.035888158 0.15073025 0.028710525 0.06459868 0.05024342 0.09330921 -0.20097367
-0.17944078 -0.0071776314 -0.028710525 0.17944078 -0.29428288 -0.014355263 -0.06459868 0.09330921
-0.028710525 0.12919736 -0.18661842 0.021532893 -0.10048684 -0.021532893 0.05024342 0.06459868
0.028710525 -0.10766447 0.035888158 0.05024342 -0.10048684 0.035888158 -0.028710525 -0.1148421
0.1148421 -0.021532893 -0.06459868 -0.021532893 0.20815131 0.06459868 0.08613157 0.0
-0.14355263 -0.12201973 0.16508552 -0.035888158 -0.136375 -0.0071776314 0.12201973 0.21532895
0.12201973 0.071776316 -0.028710525 0.0 -0.10048684 0.14355263 0.2512171 -0.021532893
0.0 -0.028710525 -0.05024342 -0.043065786 0.10766447 -0.05024342 0.3229934 -0.05024342
-0.2296842 -0.08613157 -0.09330921 0.071776316 0.078953944 0.06459868 -0.06459868 -0.05024342
0.014355263 -0.043065786 0.10766447 -0.08613157 -0.136375 0.06459868 -0.05024342 0.18661842
0.078953944 -0.071776316 -0.0071776314 -0.10766447 -0.10048684 0.1148421 0.028710525 -0.0071776314
-0.15790789 -0.014355263 0.021532893 -0.043065786 0.0071776314 -0.23686184 -0.0071776314 -0.2296842
-0.27275 0.22250657 0.16508552 0.06459868 -0.136375 -0.3660592 -0.028710525 0.06459868
0.17944078 0.29428288 0.17226315 -0.136375 0.0 -0.12919736 0.10766447 -0.0071776314
-0.043065786 -0.071776316 -0.136375 0.09330921 0.014355263 0.0071776314 -0.014355263 -0.043065786
-0.16508552 -0.17226315 0.05024342 -0.28710526 -0.05024342 -0.136375 -0.05742105 -0.071776316
0.0 -0.035888158 0.10766447 -0.028710525 -0.078953944 0.035888158 -0.043065786 0.136375
00000000: 0cfa ee02 0b01 060e 0b03 0cfd f5ed f4f4
00000010: 0019 0206 f81a 16f8 03eb 0afe f6f1 d30c
00000020: fb07 e70d f020 0a0c f70d 0302 f804 0cf4
00000030: 09f5 f90b f3f8 0300 0509 f803 ed07 eef6
00000040: e30e 0f0b 020d fb07 f90b f811 0af0 f7fa
00000050: f604 f608 21f4 ebf2 f910 05fd f80d f1f1
00000060: 0701 fc1a fee9 1e0f f8de e6fb fcea 04fd
00000070: 13f4 f400 1400 f60a 17fb 1504 0907 0de4
00000080: e7ff fc19 d7fe f70d fc12 e603 f2fd 0709
00000090: 04f1 0507 f205 fcf0 10fd f7fd 1d09 0c00
000000a0: ecef 17fb edff 111e 110a fc00 f214 23fd
000000b0: 00fc f9fa 0ff9 2df9 e0f4 f30a 0b09 f7f9
000000c0: 02fa 0ff4 ed09 f91a 0bf6 fff1 f210 04ff
000000d0: eafe 03fa 01df ffe0 da1f 1709 edcd fc09
000000e0: 1929 18ed 00ee 0fff faf6 ed0d 0201 fefa
000000f0: e9e8 07d8 f9ed f8f6 00fb 0ffc f505 fa13
