src/gallium/targets/teflon/tests/models/yolox/063.tflite (tflite, 5952 bytes, 1 tensors)

tfl.pseudo_qconst95 i1 [64, 1, 1, 64] scale=0.010433124 zero_point=0
0	0xf2	-0.14606375
1	0x07	0.07303187
2	0xe8	-0.250395
3	0xff	-0.010433124
4	0x0c	0.1251975
5	0x1d	0.3025606
6	0xf6	-0.10433124
7	0x1d	0.3025606
8	0x25	0.3860256
9	0xe1	-0.32342684
10	0xef	-0.17736311
11	0x25	0.3860256
12	0x03	0.031299375
13	0x1b	0.28169435
14	0x13	0.19822936
15	0xf8	-0.083464995
16	0x13	0.19822936
17	0x35	0.55295557
18	0x19	0.2608281
19	0x0a	0.10433124
20	0x16	0.22952874
21	0x05	0.05216562
22	0xf8	-0.083464995
23	0xeb	-0.21909562
24	0x08	0.083464995
25	0xe6	-0.27126125
26	0xe9	-0.23996186
27	0xef	-0.17736311
28	0xea	-0.22952874
29	0xf9	-0.07303187
30	0x25	0.3860256
31	0x0d	0.13563062
32	0x18	0.250395
33	0xee	-0.18779624
34	0x07	0.07303187
35	0xf0	-0.16692999
36	0x11	0.17736311
37	0xff	-0.010433124
38	0xf7	-0.09389812
39	0x1a	0.27126125
40	0xf5	-0.11476437
41	0x0f	0.15649687
42	0xed	-0.19822936
43	0x27	0.40689185
44	0x03	0.031299375
45	0x16	0.22952874
46	0xee	-0.18779624
47	0x1d	0.3025606
48	0xfc	-0.041732498
49	0x1d	0.3025606
50	0xf0	-0.16692999
51	0xdb	-0.3860256
52	0xeb	-0.21909562
53	0x1e	0.31299374
54	0x2a	0.43819124
55	0xf4	-0.1251975
56	0x15	0.21909562
57	0x0e	0.14606375
58	0xcc	-0.5425225
59	0xf4	-0.1251975
60	0x00	0.0
61	0x0b	0.11476437
62	0x0c	0.1251975
63	0xe2	-0.31299374
64	0xe8	-0.250395
65	0xef	-0.17736311
66	0xdd	-0.36515936
67	0x26	0.39645872
68	0x34	0.5425225
69	0x03	0.031299375
70	0x17	0.23996186
71	0xe8	-0.250395
72	0xf3	-0.13563062
73	0x1e	0.31299374
74	0x12	0.18779624
75	0xe5	-0.28169435
76	0xf1	-0.15649687
77	0xf0	-0.16692999
78	0x0b	0.11476437
79	0xf3	-0.13563062
80	0x0a	0.10433124
81	0xea	-0.22952874
82	0xfa	-0.06259875
83	0xf4	-0.1251975
84	0x01	0.010433124
85	0x0f	0.15649687
86	0xf2	-0.14606375
87	0xfe	-0.020866249
88	0x0f	0.15649687
89	0xff	-0.010433124
90	0xee	-0.18779624
91	0x18	0.250395
92	0xfd	-0.031299375
93	0xfe	-0.020866249
94	0x03	0.031299375
95	0xfd	-0.031299375
96	0x00	0.0
97	0xfa	-0.06259875
98	0x12	0.18779624
99	0xff	-0.010433124
100	0x02	0.020866249
101	0xf9	-0.07303187
102	0xfb	-0.05216562
103	0x10	0.16692999
104	0x1f	0.32342684
105	0xf9	-0.07303187
106	0x08	0.083464995
107	0x19	0.2608281
108	0xf5	-0.11476437
109	0x0e	0.14606375
110	0xfd	-0.031299375
111	0xe4	-0.2921275
112	0x0e	0.14606375
113	0x16	0.22952874
114	0xfc	-0.041732498
115	0x07	0.07303187
116	0xf0	-0.16692999
117	0x17	0.23996186
118	0xf6	-0.10433124
119	0xd6	-0.43819124
120	0x0e	0.14606375
121	0xfd	-0.031299375
122	0xf4	-0.1251975
123	0x02	0.020866249
124	0x0b	0.11476437
125	0x30	0.50079
126	0xfb	-0.05216562
127	0x03	0.031299375
128	0xf5	-0.11476437
129	0xe7	-0.2608281
130	0xfc	-0.041732498
131	0x01	0.010433124
132	0xfa	-0.06259875
133	0x1b	0.28169435
134	0xdb	-0.3860256
135	0xf0	-0.16692999
136	0x10	0.16692999
137	0xfb	-0.05216562
138	0xf3	-0.13563062
139	0x05	0.05216562
140	0x04	0.041732498
141	0xf0	-0.16692999
142	0xf0	-0.16692999
143	0x14	0.20866248
144	0x0c	0.1251975
145	0xfb	-0.05216562
146	0x0b	0.11476437
147	0xed	-0.19822936
148	0xfb	-0.05216562
149	0xe8	-0.250395
150	0xfd	-0.031299375
151	0xfd	-0.031299375
152	0xfd	-0.031299375
153	0x0a	0.10433124
154	0xf7	-0.09389812
155	0x29	0.4277581
156	0x07	0.07303187
157	0xf2	-0.14606375
158	0x1d	0.3025606
159	0xef	-0.17736311
160	0xd4	-0.45905748
161	0xea	-0.22952874
162	0xff	-0.010433124
163	0xfa	-0.06259875
164	0xfd	-0.031299375
165	0xfc	-0.041732498
166	0xfa	-0.06259875
167	0x1b	0.28169435
168	0xf9	-0.07303187
169	0xf5	-0.11476437
170	0xfe	-0.020866249
171	0xf6	-0.10433124
172	0xf8	-0.083464995
173	0x3e	0.6468537
174	0xd7	-0.4277581
175	0x0f	0.15649687
176	0x17	0.23996186
177	0x0a	0.10433124
178	0xf7	-0.09389812
179	0x06	0.06259875
180	0xf6	-0.10433124
181	0xf8	-0.083464995
182	0x0b	0.11476437
183	0x0a	0.10433124
184	0xd5	-0.44862434
185	0xf5	-0.11476437
186	0xea	-0.22952874
187	0xfc	-0.041732498
188	0x0c	0.1251975
189	0x0a	0.10433124
190	0xf6	-0.10433124
191	0xf3	-0.13563062
192	0xe5	-0.28169435
193	0x18	0.250395
194	0xf5	-0.11476437
195	0x02	0.020866249
196	0x0e	0.14606375
197	0xff	-0.010433124
198	0x0a	0.10433124
199	0xfc	-0.041732498
200	0xf7	-0.09389812
201	0x03	0.031299375
202	0x05	0.05216562
203	0xfd	-0.031299375
204	0xf5	-0.11476437
205	0xf7	-0.09389812
206	0x03	0.031299375
207	0x04	0.041732498
208	0x0b	0.11476437
209	0xf2	-0.14606375
210	0x07	0.07303187
211	0xf7	-0.09389812
212	0x0a	0.10433124
213	0xf8	-0.083464995
214	0x08	0.083464995
215	0xed	-0.19822936
216	0x1f	0.32342684
217	0xd7	-0.4277581
218	0xf8	-0.083464995
219	0xf8	-0.083464995
220	0xfa	-0.06259875
221	0xe3	-0.3025606
222	0x13	0.19822936
223	0xf6	-0.10433124
224	0xe6	-0.27126125
225	0xef	-0.17736311
226	0xfe	-0.020866249
227	0xf0	-0.16692999
228	0xe4	-0.2921275
229	0xf4	-0.1251975
230	0x10	0.16692999
231	0xdd	-0.36515936
232	0xff	-0.010433124
233	0xf9	-0.07303187
234	0x04	0.041732498
235	0xf0	-0.16692999
236	0x08	0.083464995
237	0x0c	0.1251975
238	0xf3	-0.13563062
239	0x2b	0.44862434
240	0xf8	-0.083464995
241	0x02	0.020866249
242	0xf5	-0.11476437
243	0xeb	-0.21909562
244	0xf9	-0.07303187
245	0x03	0.031299375
246	0xf5	-0.11476437
247	0x21	0.34429312
248	0x05	0.05216562
249	0xfd	-0.031299375
250	0xeb	-0.21909562
251	0x0a	0.10433124
252	0x05	0.05216562
253	0xf2	-0.14606375
254	0x0f	0.15649687
255	0x02	0.020866249
