src/gallium/targets/teflon/tests/models/yolox/065.tflite (tflite, 18064 bytes, 1 tensors)

tfl.pseudo_qconst91 i1 [64, 1, 1, 256] scale=0.005992759 zero_point=0
00000000: e8f3 f00f e60e 0def 000f 00ed f0fe 2503
00000010: daeb 0b04 1604 fc0c f9f6 02dc 10f4 021b
00000020: 01fd ea09 00f6 e7e8 eb0a 04e0 001f 16cb
00000030: fefa 1e00 ff12 f221 f8f4 f6f6 090b fa11
00000040: 0203 e315 e8ef 0c01 1c1e ec00 ee01 e808
00000050: efe9 f4d6 28e3 0a10 0b14 12fd fd06 eef9
00000060: ed12 0ff4 f6f9 0cf4 0c02 0902 0c1e 10e6
00000070: 0bff fd0b 0ff6 1002 f409 1f0a e000 f7f7
00000080: fcfd fb02 e3fc fafc f303 ed07 f906 fc07
00000090: 080e f504 f4ed 0416 04fe 0003 f4df f9f5
000000a0: 0106 08fb 0104 20e3 08f0 0400 fefa 08fa
000000b0: 0f25 f707 fcf0 f5eb fe11 f90b 1001 ec01
000000c0: fc12 e903 0100 f804 f5fe f2fa 05fe fc1f
000000d0: e7ee fa07 f103 e810 1004 06f5 08d8 0403
000000e0: e20a 0416 e710 3802 f5e4 0308 f512 01f2
000000f0: 05fa fced 0bde 0215 f4ff ed07 14f8 0dff
-0.14382622 -0.07790586 -0.095884144 0.08989139 -0.15581173 0.083898626 0.07790586 -0.1018769
0.0 0.08989139 0.0 -0.113862425 -0.095884144 -0.011985518 0.22173208 0.017978277
-0.22772485 -0.12584794 0.06592035 0.023971036 0.1318407 0.023971036 -0.023971036 0.07191311
-0.041949313 -0.05992759 0.011985518 -0.21573932 0.095884144 -0.07191311 0.011985518 0.1618045
0.005992759 -0.017978277 -0.1318407 0.05393483 0.0 -0.05992759 -0.14981897 -0.14382622
-0.12584794 0.05992759 0.023971036 -0.19176829 0.0 0.18577553 0.1318407 -0.31761622
-0.011985518 -0.035956554 0.17978278 0.0 -0.005992759 0.10786966 -0.083898626 0.19776104
-0.047942072 -0.07191311 -0.05992759 -0.05992759 0.05393483 0.06592035 -0.035956554 0.1018769
0.011985518 0.017978277 -0.17379001 0.12584794 -0.14382622 -0.1018769 0.07191311 0.005992759
0.16779725 0.17978278 -0.11985518 0.0 -0.10786966 0.005992759 -0.14382622 0.047942072
-0.1018769 -0.13783346 -0.07191311 -0.25169587 0.23971036 -0.17379001 0.05992759 0.095884144
0.06592035 0.11985518 0.10786966 -0.017978277 -0.017978277 0.035956554 -0.10786966 -0.041949313
-0.113862425 0.10786966 0.08989139 -0.07191311 -0.05992759 -0.041949313 0.07191311 -0.07191311
0.07191311 0.011985518 0.05393483 0.011985518 0.07191311 0.17978278 0.095884144 -0.15581173
0.06592035 -0.005992759 -0.017978277 0.06592035 0.08989139 -0.05992759 0.095884144 0.011985518
-0.07191311 0.05393483 0.18577553 0.05992759 -0.19176829 0.0 -0.05393483 -0.05393483
-0.023971036 -0.017978277 -0.029963795 0.011985518 -0.17379001 -0.023971036 -0.035956554 -0.023971036
-0.07790586 0.017978277 -0.113862425 0.041949313 -0.041949313 0.035956554 -0.023971036 0.041949313
0.047942072 0.083898626 -0.06592035 0.023971036 -0.07191311 -0.113862425 0.023971036 0.1318407
0.023971036 -0.011985518 0.0 0.017978277 -0.07191311 -0.19776104 -0.041949313 -0.06592035
0.005992759 0.035956554 0.047942072 -0.029963795 0.005992759 0.023971036 0.19176829 -0.17379001
0.047942072 -0.095884144 0.023971036 0.0 -0.011985518 -0.035956554 0.047942072 -0.035956554
0.08989139 0.22173208 -0.05393483 0.041949313 -0.023971036 -0.095884144 -0.06592035 -0.12584794
-0.011985518 0.1018769 -0.041949313 0.06592035 0.095884144 0.005992759 -0.11985518 0.005992759
-0.023971036 0.10786966 -0.13783346 0.017978277 0.005992759 0.0 -0.047942072 0.023971036
-0.06592035 -0.011985518 -0.083898626 -0.035956554 0.029963795 -0.011985518 -0.023971036 0.18577553
-0.14981897 -0.10786966 -0.035956554 0.041949313 -0.08989139 0.017978277 -0.14382622 0.095884144
0.095884144 0.023971036 0.035956554 -0.06592035 0.047942072 -0.23971036 0.023971036 0.017978277
-0.17978278 0.05992759 0.023971036 0.1318407 -0.14981897 0.095884144 0.3355945 0.011985518
-0.06592035 -0.16779725 0.017978277 0.047942072 -0.06592035 0.10786966 0.005992759 -0.083898626
0.029963795 -0.035956554 -0.023971036 -0.113862425 0.06592035 -0.2037538 0.011985518 0.12584794
-0.07191311 -0.005992759 -0.113862425 0.041949313 0.11985518 -0.047942072 0.07790586 -0.005992759
