src/gallium/targets/teflon/tests/models/yolox/067.tflite (tflite, 18320 bytes, 1 tensors)

tfl.pseudo_qconst89 i1 [128, 1, 1, 128] scale=0.008956549 zero_point=0
000000 ec 04 04 e5 01 fe 0c 0f f4 09 f2 00 01 fd 01 05
       -0.17913097 0.035826195 0.035826195 -0.24182682 0.008956549 -0.017913098 0.10747859 0.13434823 -0.10747859 0.08060894 -0.12539168 0.0 0.008956549 -0.026869647 0.008956549 0.044782743
000010 09 03 02 f7 0d 02 ea 0f 20 f9 f9 09 05 0e 03 05
       0.08060894 0.026869647 0.017913098 -0.08060894 0.11643513 0.017913098 -0.19704407 0.13434823 0.28660956 -0.06269584 -0.06269584 0.08060894 0.044782743 0.12539168 0.026869647 0.044782743
000020 ef 0b ec f0 df 15 e6 eb 07 dc 08 0c e7 f9 08 f5
       -0.15226133 0.09852204 -0.17913097 -0.14330478 -0.2955661 0.18808752 -0.23287027 -0.18808752 0.06269584 -0.32243577 0.07165239 0.10747859 -0.22391371 -0.06269584 0.07165239 -0.09852204
000030 0c f2 f2 05 0b 00 05 17 02 f7 fa 06 2f f9 fe 0f
       0.10747859 -0.12539168 -0.12539168 0.044782743 0.09852204 0.0 0.044782743 0.20600063 0.017913098 -0.08060894 -0.053739294 0.053739294 0.4209578 -0.06269584 -0.017913098 0.13434823
000040 ec fb e0 c9 e2 02 ed 14 ff f6 ef f0 05 ff 21 0b
       -0.17913097 -0.044782743 -0.28660956 -0.4926102 -0.26869646 0.017913098 -0.17017442 0.17913097 -0.008956549 -0.089565486 -0.15226133 -0.14330478 0.044782743 -0.008956549 0.2955661 0.09852204
000050 fe f6 07 fa f2 0b 0e 1e f1 04 00 39 ed e5 13 04
       -0.017913098 -0.089565486 0.06269584 -0.053739294 -0.12539168 0.09852204 0.12539168 0.26869646 -0.13434823 0.035826195 0.0 0.51052326 -0.17017442 -0.24182682 0.17017442 0.035826195
000060 e0 fd fa 11 f8 f8 0a 04 19 f7 f4 18 f4 f5 db e0
       -0.28660956 -0.026869647 -0.053739294 0.15226133 -0.07165239 -0.07165239 0.089565486 0.035826195 0.22391371 -0.08060894 -0.10747859 0.21495718 -0.10747859 -0.09852204 -0.33139232 -0.28660956
000070 21 ef 0c f4 d5 0f fb 18 da 06 10 f5 e9 d4 0c 0e
       0.2955661 -0.15226133 0.10747859 -0.10747859 -0.3851316 0.13434823 -0.044782743 0.21495718 -0.34034884 0.053739294 0.14330478 -0.09852204 -0.20600063 -0.39408815 0.10747859 0.12539168
000080 fa 07 01 f6 f4 f6 f1 f2 06 06 1e 1e 07 f4 fc 04
       -0.053739294 0.06269584 0.008956549 -0.089565486 -0.10747859 -0.089565486 -0.13434823 -0.12539168 0.053739294 0.053739294 0.26869646 0.26869646 0.06269584 -0.10747859 -0.035826195 0.035826195
000090 fc 0d 02 f9 f7 f3 fa 02 fa f6 f8 0d 00 ea f2 04
       -0.035826195 0.11643513 0.017913098 -0.06269584 -0.08060894 -0.11643513 -0.053739294 0.017913098 -0.053739294 -0.089565486 -0.07165239 0.11643513 0.0 -0.19704407 -0.12539168 0.035826195
0000a0 fc 04 ee ff 20 02 18 f7 0c f3 e4 05 f4 06 e0 f4
       -0.035826195 0.035826195 -0.16121788 -0.008956549 0.28660956 0.017913098 0.21495718 -0.08060894 0.10747859 -0.11643513 -0.25078335 0.044782743 -0.10747859 0.053739294 -0.28660956 -0.10747859
0000b0 06 09 f1 01 00 f5 fa f8 f9 ed ef fb f9 ee 04 f3
       0.053739294 0.08060894 -0.13434823 0.008956549 0.0 -0.09852204 -0.053739294 -0.07165239 -0.06269584 -0.17017442 -0.15226133 -0.044782743 -0.06269584 -0.16121788 0.035826195 -0.11643513
0000c0 26 09 e6 0e 0f f8 1d ec e8 f7 0b ff 09 14 f9 f4
       0.34034884 0.08060894 -0.23287027 0.12539168 0.13434823 -0.07165239 0.2597399 -0.17913097 -0.21495718 -0.08060894 0.09852204 -0.008956549 0.08060894 0.17913097 -0.06269584 -0.10747859
0000d0 18 02 fa f4 e7 17 ef fe fa f5 db ee fc 0f 03 1c
       0.21495718 0.017913098 -0.053739294 -0.10747859 -0.22391371 0.20600063 -0.15226133 -0.017913098 -0.053739294 -0.09852204 -0.33139232 -0.16121788 -0.035826195 0.13434823 0.026869647 0.25078335
0000e0 41 f3 06 ff f8 1a f4 21 f7 f1 ec f1 fc f8 d4 e8
       0.5821757 -0.11643513 0.053739294 -0.008956549 -0.07165239 0.23287027 -0.10747859 0.2955661 -0.08060894 -0.13434823 -0.17913097 -0.13434823 -0.035826195 -0.07165239 -0.39408815 -0.21495718
0000f0 ec 0b 02 05 0a f9 e6 04 f8 d4 02 fa 18 26 09 fe
       -0.17913097 0.09852204 0.017913098 0.044782743 0.089565486 -0.06269584 -0.23287027 0.035826195 -0.07165239 -0.39408815 0.017913098 -0.053739294 0.21495718 0.34034884 0.08060894 -0.017913098
