src/gallium/targets/teflon/tests/models/yolox/074.tflite (tflite, 5648 bytes, 1 tensors)

tfl.pseudo_qconst79 i1 [32, 1, 1, 128] scale=0.004809788 zero_point=0
000000 08 03 ec eb 16 09 fa ee 21 f6 01 0c da e0 0e 00
       0.038478304 0.014429364 -0.09619576 -0.10100555 0.105815336 0.043288093 -0.028858729 -0.086576186 0.158723 -0.04809788 0.004809788 0.057717457 -0.18277194 -0.15391321 0.06733703 0.0
000010 01 eb ee 10 fa 02 f1 0c f6 34 eb 0d f6 e8 ef 13
       0.004809788 -0.10100555 -0.086576186 0.07695661 -0.028858729 0.009619576 -0.07214682 0.057717457 -0.04809788 0.250109 -0.10100555 0.06252725 -0.04809788 -0.115434915 -0.0817664 0.09138597
000020 23 10 01 0e fa f1 f6 0d fc ef ec 05 18 17 00 f5
       0.16834258 0.07695661 0.004809788 0.06733703 -0.028858729 -0.07214682 -0.04809788 0.06252725 -0.019239152 -0.0817664 -0.09619576 0.02404894 0.115434915 0.110625125 0.0 -0.052907668
000030 22 e5 f1 49 10 f5 fb fa 14 05 11 e9 05 fa f9 f8
       0.1635328 -0.12986428 -0.07214682 0.3511145 0.07695661 -0.052907668 -0.02404894 -0.028858729 0.09619576 0.02404894 0.0817664 -0.110625125 0.02404894 -0.028858729 -0.033668514 -0.038478304
000040 f5 0f 0b ee 0e 17 f2 0f 11 dd 03 0f 02 fe 14 07
       -0.052907668 0.07214682 0.052907668 -0.086576186 0.06733703 0.110625125 -0.06733703 0.07214682 0.0817664 -0.16834258 0.014429364 0.07214682 0.009619576 -0.009619576 0.09619576 0.033668514
000050 1b 04 11 0f da f3 fc f8 09 f5 eb 0c 01 0f 04 07
       0.12986428 0.019239152 0.0817664 0.07214682 -0.18277194 -0.06252725 -0.019239152 -0.038478304 0.043288093 -0.052907668 -0.10100555 0.057717457 0.004809788 0.07214682 0.019239152 0.033668514
000060 02 15 f6 f1 14 06 fa 01 fb 08 05 02 05 02 fc fb
       0.009619576 0.10100555 -0.04809788 -0.07214682 0.09619576 0.028858729 -0.028858729 0.004809788 -0.02404894 0.038478304 0.02404894 0.009619576 0.02404894 0.009619576 -0.019239152 -0.02404894
000070 00 ff fe 11 ec 01 df e5 07 03 07 03 f7 de 0e eb
       0.0 -0.004809788 -0.009619576 0.0817664 -0.09619576 0.004809788 -0.158723 -0.12986428 0.033668514 0.014429364 0.033668514 0.014429364 -0.043288093 -0.1635328 0.06733703 -0.10100555
000080 cd fa fa 0c 25 07 20 0d 0e e5 03 e7 ee 13 fa 12
       -0.24529919 -0.028858729 -0.028858729 0.057717457 0.17796215 0.033668514 0.15391321 0.06252725 0.06733703 -0.12986428 0.014429364 -0.1202447 -0.086576186 0.09138597 -0.028858729 0.086576186
000090 10 22 19 05 03 03 eb 0c fe 06 08 ff e7 fd f7 18
       0.07695661 0.1635328 0.1202447 0.02404894 0.014429364 0.014429364 -0.10100555 0.057717457 -0.009619576 0.028858729 0.038478304 -0.004809788 -0.1202447 -0.014429364 -0.043288093 0.115434915
0000a0 e9 1d 18 f6 f6 04 07 02 fd 10 ed 03 eb fd 10 fd
       -0.110625125 0.13948385 0.115434915 -0.04809788 -0.04809788 0.019239152 0.033668514 0.009619576 -0.014429364 0.07695661 -0.09138597 0.014429364 -0.10100555 -0.014429364 0.07695661 -0.014429364
0000b0 fb 08 e6 11 f6 ec 13 16 45 09 fb f2 e5 0c fd 04
       -0.02404894 0.038478304 -0.1250545 0.0817664 -0.04809788 -0.09619576 0.09138597 0.105815336 0.33187538 0.043288093 -0.02404894 -0.06733703 -0.12986428 0.057717457 -0.014429364 0.019239152
0000c0 fa 0a f7 03 04 e5 fb ed 17 0e 06 fd f1 fa ee fa
       -0.028858729 0.04809788 -0.043288093 0.014429364 0.019239152 -0.12986428 -0.02404894 -0.09138597 0.110625125 0.06733703 0.028858729 -0.014429364 -0.07214682 -0.028858729 -0.086576186 -0.028858729
0000d0 01 fe 03 14 f4 07 09 0e ee f4 fd 03 fc fe ec 0a
       0.004809788 -0.009619576 0.014429364 0.09619576 -0.057717457 0.033668514 0.043288093 0.06733703 -0.086576186 -0.057717457 -0.014429364 0.014429364 -0.019239152 -0.009619576 -0.09619576 0.04809788
0000e0 ea ef fe 05 fe 03 ef fd f9 f3 eb f2 fc 0e ef 13
       -0.105815336 -0.0817664 -0.009619576 0.02404894 -0.009619576 0.014429364 -0.0817664 -0.014429364 -0.033668514 -0.06252725 -0.10100555 -0.06733703 -0.019239152 0.06733703 -0.0817664 0.09138597
0000f0 12 1b f6 f9 f6 08 f4 ed f4 16 06 10 fe fd f6 0c
       0.086576186 0.12986428 -0.04809788 -0.033668514 -0.04809788 0.038478304 -0.057717457 -0.09138597 -0.057717457 0.105815336 0.028858729 0.07695661 -0.009619576 -0.014429364 -0.04809788 0.057717457
