src/gallium/targets/teflon/tests/models/yolox/076.tflite (tflite, 5776 bytes, 1 tensors)

tfl.pseudo_qconst77 i1 [64, 1, 1, 64] scale=0.0076731974 zero_point=0
000000 53 08 0c f9 0b f8 06 fc e4 ce e6 10 f6 c5 f7 fa
       0.6368754 0.06138558 0.09207837 -0.053712383 0.08440517 -0.06138558 0.046039186 -0.03069279 -0.21484953 -0.38365987 -0.19950314 0.12277116 -0.07673197 -0.45271865 -0.069058776 -0.046039186
000010 02 ec fa 07 1a 17 ff f7 1a 0d 02 13 f6 0a df fd
       0.015346395 -0.15346394 -0.046039186 0.053712383 0.19950314 0.17648354 -0.0076731974 -0.069058776 0.19950314 0.09975157 0.015346395 0.14579076 -0.07673197 0.07673197 -0.25321552 -0.023019593
000020 07 01 02 ff eb fe 00 12 18 07 ef 05 05 f9 fd fc
       0.053712383 0.0076731974 0.015346395 -0.0076731974 -0.16113715 -0.015346395 0.0 0.13811755 0.18415675 0.053712383 -0.13044436 0.038365986 0.038365986 -0.053712383 -0.023019593 -0.03069279
000030 f6 ea e8 0d ef 0f e5 0f 0a 01 f6 01 f7 0a 04 14
       -0.07673197 -0.16881034 -0.18415675 0.09975157 -0.13044436 0.11509796 -0.20717633 0.11509796 0.07673197 0.0076731974 -0.07673197 0.0076731974 -0.069058776 0.07673197 0.03069279 0.15346394
000040 e4 07 0a 07 fb db 04 d8 23 ed 56 cf ec dc fe e9
       -0.21484953 0.053712383 0.07673197 0.053712383 -0.038365986 -0.2839083 0.03069279 -0.3069279 0.2685619 -0.14579076 0.659895 -0.37598667 -0.15346394 -0.2762351 -0.015346395 -0.17648354
000050 cb f2 0f 0c d9 e6 03 c1 16 ff e5 f7 21 f6 cc 20
       -0.40667945 -0.107424766 0.11509796 0.09207837 -0.2992547 -0.19950314 0.023019593 -0.48341143 0.16881034 -0.0076731974 -0.20717633 -0.069058776 0.25321552 -0.07673197 -0.39900628 0.24554232
000060 cf ed e2 16 2a 36 13 20 c4 1c f6 f5 f0 f8 01 e8
       -0.37598667 -0.14579076 -0.23019592 0.16881034 0.3222743 0.41435266 0.14579076 0.24554232 -0.46039185 0.21484953 -0.07673197 -0.08440517 -0.12277116 -0.06138558 0.0076731974 -0.18415675
000070 f5 6a 1b f3 fc f5 38 10 e4 b6 1d f1 25 29 f3 e4
       -0.08440517 0.8133589 0.20717633 -0.09975157 -0.03069279 -0.08440517 0.42969906 0.12277116 -0.21484953 -0.5678166 0.22252272 -0.11509796 0.2839083 0.3146011 -0.09975157 -0.21484953
000080 17 e8 2f 13 f1 f3 0b 0c db 13 03 03 f7 de 27 06
       0.17648354 -0.18415675 0.3606403 0.14579076 -0.11509796 -0.09975157 0.08440517 0.09207837 -0.2839083 0.14579076 0.023019593 0.023019593 -0.069058776 -0.26088873 0.2992547 0.046039186
000090 02 c8 0e d8 0f fd 20 0d 37 0e dc f8 19 17 fc f5
       0.015346395 -0.42969906 0.107424766 -0.3069279 0.11509796 -0.023019593 0.24554232 0.09975157 0.42202586 0.107424766 -0.2762351 -0.06138558 0.19182993 0.17648354 -0.03069279 -0.08440517
0000a0 07 20 f7 d8 1a e2 7f 21 dd eb ca dd 2d 20 01 1d
       0.053712383 0.24554232 -0.069058776 -0.3069279 0.19950314 -0.23019592 0.97449607 0.25321552 -0.2685619 -0.16113715 -0.41435266 -0.2685619 0.34529388 0.24554232 0.0076731974 0.22252272
0000b0 1c e5 ed d8 c0 e2 34 fb e8 09 17 0f d2 da d9 e2
       0.21484953 -0.20717633 -0.14579076 -0.3069279 -0.49108464 -0.23019592 0.39900628 -0.038365986 -0.18415675 0.069058776 0.17648354 0.11509796 -0.35296708 -0.2915815 -0.2992547 -0.23019592
0000c0 fe 09 f9 fe f2 00 04 f6 0b 01 e7 08 04 ea 04 03
       -0.015346395 0.069058776 -0.053712383 -0.015346395 -0.107424766 0.0 0.03069279 -0.07673197 0.08440517 0.0076731974 -0.19182993 0.06138558 0.03069279 -0.16881034 0.03069279 0.023019593
0000d0 25 fe 05 04 0d 06 fe f7 f5 14 fc 0f 04 04 32 06
       0.2839083 -0.015346395 0.038365986 0.03069279 0.09975157 0.046039186 -0.015346395 -0.069058776 -0.08440517 0.15346394 -0.03069279 0.11509796 0.03069279 0.03069279 0.38365987 0.046039186
0000e0 01 26 f8 fe 03 15 f0 04 f8 03 ea 03 f7 e7 13 f9
       0.0076731974 0.2915815 -0.06138558 -0.015346395 0.023019593 0.16113715 -0.12277116 0.03069279 -0.06138558 0.023019593 -0.16881034 0.023019593 -0.069058776 -0.19182993 0.14579076 -0.053712383
0000f0 03 f4 f7 1b 15 e1 eb 0d 01 24 05 21 08 fb f9 f0
       0.023019593 -0.09207837 -0.069058776 0.20717633 0.16113715 -0.23786911 -0.16113715 0.09975157 0.0076731974 0.2762351 0.038365986 0.25321552 0.06138558 -0.038365986 -0.053712383 -0.12277116
