src/gallium/targets/teflon/tests/models/yolox/087.tflite (tflite, 149408 bytes, 1 tensors)

tfl.pseudo_qconst63 i1 [128, 3, 3, 128] scale=0.0056750206 zero_point=0
0	0xfb	-0.028375104
1	0x01	0.0056750206
2	0xfd	-0.017025061
3	0x03	0.017025061
4	0x12	0.10215037
5	0x04	0.022700083
6	0x02	0.011350041
7	0xff	-0.0056750206
8	0xff	-0.0056750206
9	0xfa	-0.034050122
10	0x01	0.0056750206
11	0x01	0.0056750206
12	0x03	0.017025061
13	0xfb	-0.028375104
14	0xfc	-0.022700083
15	0x01	0.0056750206
16	0x08	0.045400165
17	0xfd	-0.017025061
18	0xfc	-0.022700083
19	0x07	0.039725143
20	0x00	0.0
21	0x01	0.0056750206
22	0xfe	-0.011350041
23	0x00	0.0
24	0xff	-0.0056750206
25	0x03	0.017025061
26	0xfa	-0.034050122
27	0xfb	-0.028375104
28	0xfd	-0.017025061
29	0xff	-0.0056750206
30	0x01	0.0056750206
31	0x06	0.034050122
32	0xf3	-0.07377527
33	0xff	-0.0056750206
34	0x05	0.028375104
35	0xf7	-0.051075187
36	0x05	0.028375104
37	0xfd	-0.017025061
38	0x00	0.0
39	0xfd	-0.017025061
40	0xf9	-0.039725143
41	0x04	0.022700083
42	0xfd	-0.017025061
43	0x01	0.0056750206
44	0x02	0.011350041
45	0x01	0.0056750206
46	0x01	0.0056750206
47	0x06	0.034050122
48	0x01	0.0056750206
49	0x03	0.017025061
50	0xf7	-0.051075187
51	0x06	0.034050122
52	0xf7	-0.051075187
53	0xff	-0.0056750206
54	0xf9	-0.039725143
55	0x03	0.017025061
56	0x02	0.011350041
57	0xf9	-0.039725143
58	0x02	0.011350041
59	0xfe	-0.011350041
60	0x03	0.017025061
61	0x00	0.0
62	0x00	0.0
63	0x02	0.011350041
64	0xff	-0.0056750206
65	0x01	0.0056750206
66	0x03	0.017025061
67	0xfb	-0.028375104
68	0xf8	-0.045400165
69	0x02	0.011350041
70	0xfb	-0.028375104
71	0xfc	-0.022700083
72	0x05	0.028375104
73	0xfe	-0.011350041
74	0x01	0.0056750206
75	0x06	0.034050122
76	0xed	-0.10782539
77	0x03	0.017025061
78	0x06	0.034050122
79	0x00	0.0
80	0xfe	-0.011350041
81	0x01	0.0056750206
82	0xfc	-0.022700083
83	0xf8	-0.045400165
84	0xff	-0.0056750206
85	0xff	-0.0056750206
86	0x03	0.017025061
87	0x01	0.0056750206
88	0xf8	-0.045400165
89	0x01	0.0056750206
90	0x01	0.0056750206
91	0xfd	-0.017025061
92	0x02	0.011350041
93	0xfc	-0.022700083
94	0xfa	-0.034050122
95	0xf7	-0.051075187
96	0xfa	-0.034050122
97	0x01	0.0056750206
98	0x02	0.011350041
99	0xff	-0.0056750206
100	0xf2	-0.07945029
101	0xfe	-0.011350041
102	0x08	0.045400165
103	0xfd	-0.017025061
104	0xfb	-0.028375104
105	0xfd	-0.017025061
106	0x03	0.017025061
107	0xfd	-0.017025061
108	0x02	0.011350041
109	0xfc	-0.022700083
110	0xf8	-0.045400165
111	0x01	0.0056750206
112	0x02	0.011350041
113	0xfb	-0.028375104
114	0xfe	-0.011350041
115	0xfd	-0.017025061
116	0x00	0.0
117	0xfa	-0.034050122
118	0x00	0.0
119	0xfc	-0.022700083
120	0x01	0.0056750206
121	0x02	0.011350041
122	0xff	-0.0056750206
123	0xfd	-0.017025061
124	0x05	0.028375104
125	0x04	0.022700083
126	0xfd	-0.017025061
127	0x03	0.017025061
128	0xf3	-0.07377527
129	0xfd	-0.017025061
130	0xfd	-0.017025061
131	0xff	-0.0056750206
132	0x0b	0.062425226
133	0xfe	-0.011350041
134	0x04	0.022700083
135	0xf5	-0.062425226
136	0x03	0.017025061
137	0xfe	-0.011350041
138	0xfd	-0.017025061
139	0xfd	-0.017025061
140	0xfe	-0.011350041
141	0xfa	-0.034050122
142	0xff	-0.0056750206
143	0xfb	-0.028375104
144	0x11	0.09647535
145	0xff	-0.0056750206
146	0xf0	-0.09080033
147	0x05	0.028375104
148	0x01	0.0056750206
149	0x00	0.0
150	0xfd	-0.017025061
151	0xf8	-0.045400165
152	0xfa	-0.034050122
153	0xfe	-0.011350041
154	0xfe	-0.011350041
155	0xfb	-0.028375104
156	0xf9	-0.039725143
157	0x01	0.0056750206
158	0xfd	-0.017025061
159	0x02	0.011350041
160	0xfe	-0.011350041
161	0xfb	-0.028375104
162	0x02	0.011350041
163	0xf9	-0.039725143
164	0x01	0.0056750206
165	0xfd	-0.017025061
166	0x02	0.011350041
167	0xff	-0.0056750206
168	0xf7	-0.051075187
169	0xfc	-0.022700083
170	0x03	0.017025061
171	0xf8	-0.045400165
172	0xfd	-0.017025061
173	0xfc	-0.022700083
174	0xff	-0.0056750206
175	0x09	0.051075187
176	0x09	0.051075187
177	0x07	0.039725143
178	0xfb	-0.028375104
179	0x07	0.039725143
180	0xf7	-0.051075187
181	0x01	0.0056750206
182	0xfb	-0.028375104
183	0x06	0.034050122
184	0x01	0.0056750206
185	0xf9	-0.039725143
186	0x0c	0.068100244
187	0x07	0.039725143
188	0xff	-0.0056750206
189	0x01	0.0056750206
190	0x02	0.011350041
191	0xfc	-0.022700083
192	0xfc	-0.022700083
193	0xf8	-0.045400165
194	0x01	0.0056750206
195	0xfb	-0.028375104
196	0xfe	-0.011350041
197	0x00	0.0
198	0x03	0.017025061
199	0x03	0.017025061
200	0x02	0.011350041
201	0x0a	0.05675021
202	0x05	0.028375104
203	0x01	0.0056750206
204	0xfc	-0.022700083
205	0xff	-0.0056750206
206	0x04	0.022700083
207	0xf5	-0.062425226
208	0xfe	-0.011350041
209	0x02	0.011350041
210	0xfe	-0.011350041
211	0xfd	-0.017025061
212	0x00	0.0
213	0x03	0.017025061
214	0x0d	0.07377527
215	0x0a	0.05675021
216	0xf9	-0.039725143
217	0x03	0.017025061
218	0xfd	-0.017025061
219	0x07	0.039725143
220	0xfe	-0.011350041
221	0xfd	-0.017025061
222	0x00	0.0
223	0xfa	-0.034050122
224	0x03	0.017025061
225	0xfd	-0.017025061
226	0xfe	-0.011350041
227	0xfd	-0.017025061
228	0xfc	-0.022700083
229	0xfb	-0.028375104
230	0xfd	-0.017025061
231	0xff	-0.0056750206
232	0x03	0.017025061
233	0xfc	-0.022700083
234	0x02	0.011350041
235	0xfd	-0.017025061
236	0x00	0.0
237	0x01	0.0056750206
238	0x01	0.0056750206
239	0x04	0.022700083
240	0x02	0.011350041
241	0x01	0.0056750206
242	0xfd	-0.017025061
243	0xfb	-0.028375104
244	0x01	0.0056750206
245	0xfd	-0.017025061
246	0xfe	-0.011350041
247	0x03	0.017025061
248	0x01	0.0056750206
249	0x03	0.017025061
250	0xfb	-0.028375104
251	0x04	0.022700083
252	0x00	0.0
253	0xfa	-0.034050122
254	0x01	0.0056750206
255	0xfd	-0.017025061
