src/gallium/targets/teflon/tests/models/yolox/089.tflite (tflite, 34704 bytes, 1 tensors)

tfl.pseudo_qconst61 i1 [128, 1, 1, 256] scale=0.008996325 zero_point=0
-0.1439412 0.0359853 0.01799265 -0.13494487 -0.008996325 -0.008996325 -0.062974274 0.01799265
-0.12594855 -0.053977948 0.01799265 0.01799265 -0.15293752 0.062974274 -0.04498162 0.008996325
0.008996325 -0.09895957 0.0 -0.008996325 0.0 0.026988974 0.026988974 -0.08996324
0.008996325 -0.008996325 -0.062974274 -0.08996324 0.008996325 0.0 -0.053977948 -0.04498162
0.053977948 0.008996325 -0.04498162 0.053977948 0.0 0.01799265 -0.01799265 0.0719706
-0.062974274 0.0359853 0.0359853 -0.0719706 0.0359853 -0.20691547 -0.008996325 -0.01799265
-0.0359853 0.12594855 0.026988974 0.008996325 0.008996325 0.0719706 0.0 0.60275376
-0.062974274 -0.008996325 -0.053977948 0.08096692 0.17992648 0.053977948 -0.04498162 -0.008996325
-0.04498162 -0.01799265 0.062974274 0.08996324 -0.008996325 0.0719706 -0.026988974 0.0
0.026988974 -0.008996325 -0.26988974 0.04498162 0.062974274 0.1439412 0.0 0.08996324
-0.04498162 -0.062974274 0.107955895 0.12594855 -0.04498162 -0.062974274 0.01799265 0.01799265
-0.026988974 -0.053977948 -0.008996325 -0.04498162 0.008996325 0.053977948 0.026988974 0.026988974
-0.04498162 -0.04498162 0.01799265 -0.008996325 -0.008996325 0.11695222 -0.16193384 -0.29687873
0.026988974 -0.04498162 -0.062974274 0.5127905 -0.026988974 -0.008996325 0.008996325 0.053977948
0.008996325 0.11695222 -0.026988974 0.0 -0.026988974 0.008996325 0.08996324 0.008996325
0.08096692 0.04498162 -0.01799265 0.0719706 -0.026988974 -0.062974274 0.34186032 -0.062974274
-0.01799265 0.0719706 -0.01799265 0.008996325 -0.008996325 -0.08096692 -0.0719706 -0.026988974
0.01799265 -0.008996325 -0.053977948 -0.01799265 -0.04498162 -0.008996325 0.0 0.026988974
-0.01799265 -0.053977948 0.0 -0.01799265 0.01799265 0.062974274 0.01799265 -0.008996325
0.026988974 -0.026988974 0.0359853 -0.008996325 -0.008996325 0.0 -0.01799265 -0.008996325
0.0 0.062974274 0.0 0.01799265 0.0 -0.01799265 0.04498162 -0.026988974
0.008996325 -0.01799265 0.0 -0.062974274 0.0719706 -0.0719706 -0.008996325 0.053977948
-0.026988974 -0.008996325 0.01799265 -0.008996325 0.008996325 -0.01799265 0.01799265 -0.008996325
-0.008996325 0.0719706 -0.04498162 0.0 -0.01799265 0.0359853 0.0 0.01799265
0.01799265 -0.04498162 0.008996325 -0.008996325 0.0 -0.008996325 0.0359853 0.008996325
-0.008996325 -0.0359853 -0.062974274 -0.01799265 -0.0359853 -0.0719706 0.0359853 0.04498162
0.026988974 0.04498162 0.0 0.01799265 -0.053977948 -0.08096692 0.04498162 0.04498162
0.062974274 0.04498162 0.062974274 -0.053977948 -0.008996325 0.01799265 -0.01799265 0.062974274
0.053977948 0.0719706 0.0 0.053977948 0.0719706 0.0 -0.026988974 0.062974274
0.1439412 0.0 0.01799265 -0.053977948 0.008996325 0.0 0.0 -0.008996325
0.026988974 0.0 -0.026988974 0.008996325 0.04498162 -0.01799265 -0.08996324 -0.01799265
0.062974274 -0.04498162 0.008996325 -0.008996325 0.062974274 -0.008996325 0.01799265 0.01799265
00000000: f004 02f1 ffff f902 f2fa 0202 ef07 fb01
00000010: 01f5 00ff 0003 03f6 01ff f9f6 0100 fafb
00000020: 0601 fb06 0002 fe08 f904 04f8 04e9 fffe
00000030: fc0e 0301 0108 0043 f9ff fa09 1406 fbff
00000040: fbfe 070a ff08 fd00 03ff e205 0710 000a
00000050: fbf9 0c0e fbf9 0202 fdfa fffb 0106 0303
00000060: fbfb 02ff ff0d eedf 03fb f939 fdff 0106
00000070: 010d fd00 fd01 0a01 0905 fe08 fdf9 26f9
00000080: fe08 fe01 fff7 f8fd 02ff fafe fbff 0003
00000090: fefa 00fe 0207 02ff 03fd 04ff ff00 feff
000000a0: 0007 0002 00fe 05fd 01fe 00f9 08f8 ff06
000000b0: fdff 02ff 01fe 02ff ff08 fb00 fe04 0002
000000c0: 02fb 01ff 00ff 0401 fffc f9fe fcf8 0405
000000d0: 0305 0002 faf7 0505 0705 07fa ff02 fe07
000000e0: 0608 0006 0800 fd07 1000 02fa 0100 00ff
000000f0: 0300 fd01 05fe f6fe 07fb 01ff 07ff 0202
