src/gallium/targets/teflon/tests/models/yolox/096.tflite (tflite, 38688 bytes, 1 tensors)

tfl.pseudo_qconst49 i1 [64, 3, 3, 64] scale=0.007534029 zero_point=0
000000 02 00 ff 09 01 04 01 06 03 04 fe ed 04 f9 02 fc
       0.015068058 0.0 -0.007534029 0.06780626 0.007534029 0.030136116 0.007534029 0.045204174 0.022602087 0.030136116 -0.015068058 -0.14314654 0.030136116 -0.052738205 0.015068058 -0.030136116
000010 01 09 00 fe 11 05 fd 0a 01 fe f7 f9 fc 03 04 04
       0.007534029 0.06780626 0.0 -0.015068058 0.12807849 0.037670143 -0.022602087 0.075340286 0.007534029 -0.015068058 -0.06780626 -0.052738205 -0.030136116 0.022602087 0.030136116 0.030136116
000020 00 f8 fd ff fa fc f5 05 fc f5 00 ff f9 fc f9 01
       0.0 -0.06027223 -0.022602087 -0.007534029 -0.045204174 -0.030136116 -0.08287432 0.037670143 -0.030136116 -0.08287432 0.0 -0.007534029 -0.052738205 -0.030136116 -0.052738205 0.007534029
000030 fc fe f2 02 ff f9 fd fd fb f4 ff ff f9 fb 00 07
       -0.030136116 -0.015068058 -0.10547641 0.015068058 -0.007534029 -0.052738205 -0.022602087 -0.022602087 -0.037670143 -0.09040835 -0.007534029 -0.007534029 -0.052738205 -0.037670143 0.0 0.052738205
000040 03 04 01 07 fd 04 01 18 02 04 03 ee fc f8 fc fc
       0.022602087 0.030136116 0.007534029 0.052738205 -0.022602087 0.030136116 0.007534029 0.1808167 0.015068058 0.030136116 0.022602087 -0.13561252 -0.030136116 -0.06027223 -0.030136116 -0.030136116
000050 ff 0e fb f7 0e 00 02 08 00 05 00 fb 00 ff 02 03
       -0.007534029 0.10547641 -0.037670143 -0.06780626 0.10547641 0.0 0.015068058 0.06027223 0.0 0.037670143 0.0 -0.037670143 0.0 -0.007534029 0.015068058 0.022602087
000060 06 00 fb 03 03 fb 01 01 02 f8 03 01 ff fd fd 02
       0.045204174 0.0 -0.037670143 0.022602087 0.022602087 -0.037670143 0.007534029 0.007534029 0.015068058 -0.06027223 0.022602087 0.007534029 -0.007534029 -0.022602087 -0.022602087 0.015068058
000070 ff fe f6 fe ff f8 00 f8 fc f3 ff fc fe 02 04 05
       -0.007534029 -0.015068058 -0.075340286 -0.015068058 -0.007534029 -0.06027223 0.0 -0.06027223 -0.030136116 -0.097942375 -0.007534029 -0.030136116 -0.015068058 0.015068058 0.030136116 0.037670143
000080 fc 02 fd 06 fd 02 f8 1c 03 02 fd df 00 f9 ff fd
       -0.030136116 0.015068058 -0.022602087 0.045204174 -0.022602087 0.015068058 -0.06027223 0.21095282 0.022602087 0.015068058 -0.022602087 -0.24862295 0.0 -0.052738205 -0.007534029 -0.022602087
000090 01 0e fd f6 11 fb 07 07 fe fd ff fd fc 00 03 04
       0.007534029 0.10547641 -0.022602087 -0.075340286 0.12807849 -0.037670143 0.052738205 0.052738205 -0.015068058 -0.022602087 -0.007534029 -0.022602087 -0.030136116 0.0 0.022602087 0.030136116
0000a0 fd ff fd ff fd f5 02 00 00 eb 07 02 04 f9 fc 05
       -0.022602087 -0.007534029 -0.022602087 -0.007534029 -0.022602087 -0.08287432 0.015068058 0.0 0.0 -0.15821461 0.052738205 0.015068058 0.030136116 -0.052738205 -0.030136116 0.037670143
0000b0 01 00 ec fd fd fd fe f8 f7 f2 00 00 fb fd 00 0a
       0.007534029 0.0 -0.15068057 -0.022602087 -0.022602087 -0.022602087 -0.015068058 -0.06027223 -0.06780626 -0.10547641 0.0 0.0 -0.037670143 -0.022602087 0.0 0.075340286
0000c0 fd 00 fe 07 07 02 05 06 01 04 fd f6 07 f1 06 01
       -0.022602087 0.0 -0.015068058 0.052738205 0.052738205 0.015068058 0.037670143 0.045204174 0.007534029 0.030136116 -0.022602087 -0.075340286 0.052738205 -0.11301044 0.045204174 0.007534029
0000d0 00 05 01 fd 0b 01 f7 09 07 00 fd 00 03 07 fe 06
       0.0 0.037670143 0.007534029 -0.022602087 0.08287432 0.007534029 -0.06780626 0.06780626 0.052738205 0.0 -0.022602087 0.0 0.022602087 0.052738205 -0.015068058 0.045204174
0000e0 03 fe 02 fe fd fc fc 05 04 f8 01 f9 fd 01 f0 fd
       0.022602087 -0.015068058 0.015068058 -0.015068058 -0.022602087 -0.030136116 -0.030136116 0.037670143 0.030136116 -0.06027223 0.007534029 -0.052738205 -0.022602087 0.007534029 -0.12054446 -0.022602087
0000f0 ff ff f6 ff 01 fe 0a 06 01 f9 01 fa 00 03 ff 0a
       -0.007534029 -0.007534029 -0.075340286 -0.007534029 0.007534029 -0.015068058 0.075340286 0.045204174 0.007534029 -0.052738205 0.007534029 -0.045204174 0.0 0.022602087 -0.007534029 0.075340286
