src/gallium/targets/teflon/tests/models/yolox/106.tflite (tflite, 38688 bytes, 1 tensors)

tfl.pseudo_qconst33 i1 [64, 3, 3, 64] scale=0.005111346 zero_point=0
00000000: 0306 fe05 f80a f4fa f3ff 11f4 00eb 0702
00000010: 04ff 0dfc 0208 0dff f305 04fa 0009 ef02
00000020: f605 0cfb 0101 f0f5 f800 04f2 0e08 0000
00000030: 0003 f7f1 fd07 0804 09ee fcfe fdfc 0706
00000040: f617 0b05 0af9 f6f7 ec03 1904 f600 fd05
00000050: 0700 0cf8 040a ff03 f90d f9fd 0107 faf9
00000060: f80f 0e01 14fe f5f5 f60b feff 0dfe fdf7
00000070: 00fa ffed fe00 fdf8 0bf4 fd00 fffc 0607
00000080: f50e fe01 f701 faf4 ecfb 1804 f9ea 02fd
00000090: 06f9 11f6 0d0d 0803 f407 01fa fd0a f4ff
000000a0: 0010 0eff 1104 f8f1 fc00 06ff 0df6 02f9
000000b0: f804 f9ec fe03 fdfb 08ec fcfe f7fe 0d08
000000c0: 0312 f803 fbff fcfd f904 15f2 faf0 0bfb
000000d0: 0404 11f2 eeff 0404 f806 07f6 f7fe faff
000000e0: fd15 1109 0501 fcff f8f7 05ef 0906 fcf7
000000f0: 06f5 00f2 fd05 020a 08f1 fc03 fefc 0df9
0.015334038 0.030668076 -0.010222692 0.02555673 -0.04089077 0.05111346 -0.061336152 -0.030668076
-0.0664475 -0.005111346 0.08689288 -0.061336152 0.0 -0.107338265 0.035779424 0.010222692
0.020445384 -0.005111346 0.0664475 -0.020445384 0.010222692 0.04089077 0.0664475 -0.005111346
-0.0664475 0.02555673 0.020445384 -0.030668076 0.0 0.046002112 -0.08689288 0.010222692
-0.05111346 0.02555673 0.061336152 -0.02555673 0.005111346 0.005111346 -0.08178154 -0.056224808
-0.04089077 0.0 0.020445384 -0.07155885 0.07155885 0.04089077 0.0 0.0
0.0 0.015334038 -0.046002112 -0.07667019 -0.015334038 0.035779424 0.04089077 0.020445384
0.046002112 -0.092004225 -0.020445384 -0.010222692 -0.015334038 -0.020445384 0.035779424 0.030668076
-0.05111346 0.11756096 0.056224808 0.02555673 0.05111346 -0.035779424 -0.05111346 -0.046002112
-0.10222692 0.015334038 0.12778366 0.020445384 -0.05111346 0.0 -0.015334038 0.02555673
0.035779424 0.0 0.061336152 -0.04089077 0.020445384 0.05111346 -0.005111346 0.015334038
-0.035779424 0.0664475 -0.035779424 -0.015334038 0.005111346 0.035779424 -0.030668076 -0.035779424
-0.04089077 0.07667019 0.07155885 0.005111346 0.10222692 -0.010222692 -0.056224808 -0.056224808
-0.05111346 0.056224808 -0.010222692 -0.005111346 0.0664475 -0.010222692 -0.015334038 -0.046002112
0.0 -0.030668076 -0.005111346 -0.097115576 -0.010222692 0.0 -0.015334038 -0.04089077
0.056224808 -0.061336152 -0.015334038 0.0 -0.005111346 -0.020445384 0.030668076 0.035779424
-0.056224808 0.07155885 -0.010222692 0.005111346 -0.046002112 0.005111346 -0.030668076 -0.061336152
-0.10222692 -0.02555673 0.122672305 0.020445384 -0.035779424 -0.112449616 0.010222692 -0.015334038
0.030668076 -0.035779424 0.08689288 -0.05111346 0.0664475 0.0664475 0.04089077 0.015334038
-0.061336152 0.035779424 0.005111346 -0.030668076 -0.015334038 0.05111346 -0.061336152 -0.005111346
0.0 0.08178154 0.07155885 -0.005111346 0.08689288 0.020445384 -0.04089077 -0.07667019
-0.020445384 0.0 0.030668076 -0.005111346 0.0664475 -0.05111346 0.010222692 -0.035779424
-0.04089077 0.020445384 -0.035779424 -0.10222692 -0.010222692 0.015334038 -0.015334038 -0.02555673
0.04089077 -0.10222692 -0.020445384 -0.010222692 -0.046002112 -0.010222692 0.0664475 0.04089077
0.015334038 0.092004225 -0.04089077 0.015334038 -0.02555673 -0.005111346 -0.020445384 -0.015334038
-0.035779424 0.020445384 0.107338265 -0.07155885 -0.030668076 -0.08178154 0.056224808 -0.02555673
0.020445384 0.020445384 0.08689288 -0.07155885 -0.092004225 -0.005111346 0.020445384 0.020445384
-0.04089077 0.030668076 0.035779424 -0.05111346 -0.046002112 -0.010222692 -0.030668076 -0.005111346
-0.015334038 0.107338265 0.08689288 0.046002112 0.02555673 0.005111346 -0.020445384 -0.005111346
-0.04089077 -0.046002112 0.02555673 -0.08689288 0.046002112 0.030668076 -0.020445384 -0.046002112
0.030668076 -0.056224808 0.0 -0.07155885 -0.015334038 0.02555673 0.010222692 0.05111346
0.04089077 -0.07667019 -0.020445384 0.015334038 -0.010222692 -0.020445384 0.0664475 -0.035779424
