src/gallium/targets/teflon/tests/models/yolox/107.tflite (tflite, 38688 bytes, 1 tensors)

tfl.pseudo_qconst31 i1 [64, 3, 3, 64] scale=0.03466447 zero_point=0
000000 07 02 fb f8 f7 fc 04 00 fa fe 01 05 04 02 f8 05
       0.2426513 0.06932894 -0.17332235 -0.27731577 -0.31198025 -0.13865788 0.13865788 0.0 -0.20798683 -0.06932894 0.03466447 0.17332235 0.13865788 0.06932894 -0.27731577 0.17332235
000010 04 fb fc fd fe fe f8 f4 f8 07 00 f9 00 fd fd 04
       0.13865788 -0.17332235 -0.13865788 -0.103993416 -0.06932894 -0.06932894 -0.27731577 -0.41597366 -0.27731577 0.2426513 0.0 -0.2426513 0.0 -0.103993416 -0.103993416 0.13865788
000020 01 fd fd 04 00 fd 01 fc 09 02 01 07 02 04 02 07
       0.03466447 -0.103993416 -0.103993416 0.13865788 0.0 -0.103993416 0.03466447 -0.13865788 0.31198025 0.06932894 0.03466447 0.2426513 0.06932894 0.13865788 0.06932894 0.2426513
000030 09 fe 00 ff fe fd 04 fb 06 ff 00 0b 01 01 ff 00
       0.31198025 -0.06932894 0.0 -0.03466447 -0.06932894 -0.103993416 0.13865788 -0.17332235 0.20798683 -0.03466447 0.0 0.38130918 0.03466447 0.03466447 -0.03466447 0.0
000040 03 fc fc fd f9 01 fd 07 00 fc 01 03 02 01 01 07
       0.103993416 -0.13865788 -0.13865788 -0.103993416 -0.2426513 0.03466447 -0.103993416 0.2426513 0.0 -0.13865788 0.03466447 0.103993416 0.06932894 0.03466447 0.03466447 0.2426513
000050 05 fc ff 01 fe 02 f4 f1 f9 06 fe f8 01 02 f6 02
       0.17332235 -0.13865788 -0.03466447 0.03466447 -0.06932894 0.06932894 -0.41597366 -0.5199671 -0.2426513 0.20798683 -0.06932894 -0.27731577 0.03466447 0.06932894 -0.3466447 0.06932894
000060 ff fd 03 0a ff f6 01 fb 07 02 fc 02 02 fe fa 02
       -0.03466447 -0.103993416 0.103993416 0.3466447 -0.03466447 -0.3466447 0.03466447 -0.17332235 0.2426513 0.06932894 -0.13865788 0.06932894 0.06932894 -0.06932894 -0.20798683 0.06932894
000070 04 fb 02 00 fb f6 02 f8 05 03 fe 0d fd fd fb 03
       0.13865788 -0.17332235 0.06932894 0.0 -0.17332235 -0.3466447 0.06932894 -0.27731577 0.17332235 0.103993416 -0.06932894 0.45063812 -0.103993416 -0.103993416 -0.17332235 0.103993416
000080 06 03 f9 fa f7 ff 04 01 fa fb ff 05 01 01 fa 07
       0.20798683 0.103993416 -0.2426513 -0.20798683 -0.31198025 -0.03466447 0.13865788 0.03466447 -0.20798683 -0.17332235 -0.03466447 0.17332235 0.03466447 0.03466447 -0.20798683 0.2426513
000090 08 fa fe ff 04 fe f5 f3 fb 0a 01 f7 03 01 fb 04
       0.27731577 -0.20798683 -0.06932894 -0.03466447 0.13865788 -0.06932894 -0.38130918 -0.45063812 -0.17332235 0.3466447 0.03466447 -0.31198025 0.103993416 0.03466447 -0.17332235 0.13865788
0000a0 01 fd 01 06 fe f8 fd f9 09 01 fe 08 02 00 fa 08
       0.03466447 -0.103993416 0.03466447 0.20798683 -0.06932894 -0.27731577 -0.103993416 -0.2426513 0.31198025 0.03466447 -0.06932894 0.27731577 0.06932894 0.0 -0.20798683 0.27731577
0000b0 05 f9 fe 04 fb 02 03 f7 06 02 00 0b 01 03 fe 04
       0.17332235 -0.2426513 -0.06932894 0.13865788 -0.17332235 0.06932894 0.103993416 -0.31198025 0.20798683 0.06932894 0.0 0.38130918 0.03466447 0.103993416 -0.06932894 0.13865788
0000c0 06 fb 00 f8 fb ff 04 04 02 fe ff 05 ff 07 fa 03
       0.20798683 -0.17332235 0.0 -0.27731577 -0.17332235 -0.03466447 0.13865788 0.13865788 0.06932894 -0.06932894 -0.03466447 0.17332235 -0.03466447 0.2426513 -0.20798683 0.103993416
0000d0 03 fc 00 01 fb fd f3 f4 00 02 00 f7 08 00 fc 02
       0.103993416 -0.13865788 0.0 0.03466447 -0.17332235 -0.103993416 -0.45063812 -0.41597366 0.0 0.06932894 0.0 -0.31198025 0.27731577 0.0 -0.13865788 0.06932894
0000e0 fa fb 00 01 fa fa ff fa 0a 02 00 02 fd 01 00 0b
       -0.20798683 -0.17332235 0.0 0.03466447 -0.20798683 -0.20798683 -0.03466447 -0.20798683 0.3466447 0.06932894 0.0 0.06932894 -0.103993416 0.03466447 0.0 0.38130918
0000f0 04 f9 01 02 ff 01 01 f8 07 03 fd 08 ff 00 fd 03
       0.13865788 -0.2426513 0.03466447 0.06932894 -0.03466447 0.03466447 0.03466447 -0.27731577 0.2426513 0.103993416 -0.103993416 0.27731577 -0.03466447 0.0 -0.103993416 0.103993416
