src/gallium/targets/teflon/tests/models/yolox/108.tflite (tflite, 6960 bytes, 1 tensors)

tfl.pseudo_qconst29 i1 [80, 1, 1, 64] scale=0.002847865 zero_point=0
0.02278292 -0.014239325 -0.01708719 0.02847865 -0.00569573 0.02847865 -0.03987011 -0.01708719
0.014239325 0.008543595 0.048413705 0.02847865 -0.02278292 -0.002847865 0.0 -0.088283814
0.00569573 0.048413705 0.02278292 0.07689235 0.00569573 0.09682741 0.01139146 0.02278292
-0.24206853 0.11961033 -0.18226336 0.025630785 0.01708719 0.00569573 0.002847865 0.0
0.0 0.02847865 0.01139146 0.002847865 0.01708719 -0.24776426 0.008543595 0.03417438
0.00569573 -0.20219842 0.008543595 -0.00569573 0.02278292 0.002847865 0.01139146 -0.03417438
0.008543595 0.019935055 -0.03987011 0.01708719 -0.01139146 0.01139146 -0.00569573 -0.002847865
-0.00569573 -0.008543595 -0.02278292 -0.30472156 -0.025630785 0.019935055 -0.1794155 -0.36167887
-0.10821887 -0.1224582 0.025630785 -0.037022244 -0.0569573 -0.07974022 0.05126157 -0.07689235
0.031326514 0.06550089 0.02278292 0.0 0.008543595 -0.07119662 -0.037022244 -0.05126157
-0.042717975 0.00569573 -0.054109436 -0.08543595 -0.105371006 -0.002847865 0.088283814 -0.05126157
-0.07119662 0.042717975 0.002847865 -0.04556584 -0.002847865 0.03987011 0.11676247 -0.105371006
-0.11106674 0.01139146 -0.042717975 -0.048413705 0.025630785 0.02278292 -0.088283814 -0.1139146
0.08543595 0.01708719 0.093979545 0.014239325 0.054109436 -0.037022244 -0.05126157 -0.01139146
-0.002847865 -0.002847865 -0.14808898 0.0569573 -0.02278292 -0.00569573 -0.054109436 0.02847865
-0.088283814 -0.082588084 -0.00569573 -0.01708719 0.0 -0.02847865 -0.019935055 -0.037022244
-0.05126157 0.002847865 0.06550089 -0.04556584 -0.10252314 -0.11106674 0.01139146 -0.04556584
0.06550089 0.008543595 0.06265303 0.05126157 -0.00569573 -0.03987011 0.02278292 0.12815392
-0.008543595 0.008543595 -0.048413705 0.01708719 -0.04556584 0.01708719 0.008543595 -0.14808898
-0.03417438 0.04556584 -0.00569573 -0.048413705 -0.00569573 -0.11676247 0.019935055 0.00569573
0.01708719 0.0 0.014239325 0.05126157 -0.06265303 -0.048413705 -0.09113168 0.002847865
-0.12815392 0.03987011 0.031326514 0.002847865 0.09113168 0.019935055 -0.1224582 0.03417438
-0.03417438 0.03987011 -0.037022244 0.03417438 -0.25915572 0.0569573 -0.014239325 0.02847865
-0.07974022 -0.14808898 -0.08543595 -0.13100179 0.02847865 -0.13669752 -0.06265303 -0.054109436
-0.082588084 -0.09113168 0.01139146 -0.02278292 -0.06834876 -0.13100179 0.06265303 -0.11106674
0.01708719 -0.002847865 0.042717975 0.05126157 0.01708719 -0.10821887 -0.01708719 -0.014239325
0.025630785 -0.00569573 0.02847865 0.002847865 -0.088283814 -0.01139146 0.059805166 -0.042717975
-0.059805166 -0.06265303 -0.09113168 -0.099675275 0.01708719 -0.014239325 0.0 -0.048413705
-0.10821887 0.09682741 0.03417438 -0.008543595 -0.07689235 0.03417438 -0.07404449 -0.14808898
0.099675275 -0.025630785 -0.03417438 0.02847865 0.0569573 0.01708719 -0.05126157 -0.03987011
0.014239325 0.06834876 -0.07119662 0.04556584 -0.054109436 0.02278292 -0.037022244 0.054109436
-0.082588084 -0.1224582 -0.08543595 -0.05126157 0.00569573 -0.031326514 -0.06550089 -0.05126157
00000000: 08fb fa0a fe0a f2fa 0503 110a f8ff 00e1
00000010: 0211 081b 0222 0408 ab2a c009 0602 0100
00000020: 000a 0401 06a9 030c 02b9 03fe 0801 04f4
00000030: 0307 f206 fc04 feff fefd f895 f707 c181
00000040: dad5 09f3 ece4 12e5 0b17 0800 03e7 f3ee
00000050: f102 ede2 dbff 1fee e70f 01f0 ff0e 29db
00000060: d904 f1ef 0908 e1d8 1e06 2105 13f3 eefc
00000070: ffff cc14 f8fe ed0a e1e3 fefa 00f6 f9f3
00000080: ee01 17f0 dcd9 04f0 1703 1612 fef2 082d
00000090: fd03 ef06 f006 03cc f410 feef fed7 0702
000000a0: 0600 0512 eaef e001 d30e 0b01 2007 d50c
000000b0: f40e f30c a514 fb0a e4cc e2d2 0ad0 eaed
000000c0: e3e0 04f8 e8d2 16d9 06ff 0f12 06da fafb
000000d0: 09fe 0a01 e1fc 15f1 ebea e0dd 06fb 00ef
000000e0: da22 0cfd e50c e6cc 23f7 f40a 1406 eef2
000000f0: 0518 e710 ed08 f313 e3d5 e2ee 02f5 e9ee
