src/gallium/targets/teflon/tests/models/yolox/111.tflite (tflite, 1792 bytes, 1 tensors)

tfl.pseudo_qconst23 i1 [4, 1, 1, 64] scale=0.0040496523 zero_point=0
000000 00 00 00 00 01 02 00 01 fb 08 00 b2 00 ff 00 00
       0.0 0.0 0.0 0.0 0.0040496523 0.0080993045 0.0 0.0040496523 -0.02024826 0.032397218 0.0 -0.31587288 0.0 -0.0040496523 0.0 0.0
000010 93 00 00 5a 3b 00 00 00 00 00 00 ff dc d8 13 00
       -0.4414121 0.0 0.0 0.3644687 0.23892948 0.0 0.0 0.0 0.0 0.0 0.0 -0.0040496523 -0.14578748 -0.16198608 0.07694339 0.0
000020 00 fd 01 00 01 ef 00 73 00 00 00 00 90 c3 0f 00
       0.0 -0.012148957 0.0040496523 0.0 0.0040496523 -0.06884409 0.0 0.46571 0.0 0.0 0.0 0.0 -0.45356107 -0.24702878 0.060744785 0.0
000030 ff 01 00 c1 7f 99 00 41 ff 01 f9 ff ff dd 00 dc
       -0.0040496523 0.0040496523 0.0 -0.2551281 0.51430583 -0.41711417 0.0 0.2632274 -0.0040496523 0.0040496523 -0.028347567 -0.0040496523 -0.0040496523 -0.14173783 0.0 -0.14578748
000040 01 ff 30 7d ff ff d5 01 02 fd 00 01 00 3e 01 36
       0.0040496523 -0.0040496523 0.19438331 0.5062065 -0.0040496523 -0.0040496523 -0.17413504 0.0040496523 0.0080993045 -0.012148957 0.0 0.0040496523 0.0 0.25107843 0.0040496523 0.21868122
000050 fe 08 78 ff 02 01 ff 00 ff 00 02 00 ff 03 00 00
       -0.0080993045 0.032397218 0.48595828 -0.0040496523 0.0080993045 0.0040496523 -0.0040496523 0.0 -0.0040496523 0.0 0.0080993045 0.0 -0.0040496523 0.012148957 0.0 0.0
000060 b1 01 cb b0 03 01 48 00 83 93 5f 50 fe 00 01 00
       -0.31992254 0.0040496523 -0.21463157 -0.32397217 0.012148957 0.0040496523 0.29157495 0.0 -0.5062065 -0.4414121 0.38471696 0.32397217 -0.0080993045 0.0 0.0040496523 0.0
000070 06 16 01 02 fc fc 01 01 f1 00 03 00 ff 00 01 01
       0.024297914 0.08909235 0.0040496523 0.0080993045 -0.016198609 -0.016198609 0.0040496523 0.0040496523 -0.060744785 0.0 0.012148957 0.0 -0.0040496523 0.0 0.0040496523 0.0040496523
000080 00 00 ff 01 00 00 ff 00 cf db 00 0a 01 00 04 ff
       0.0 0.0 -0.0040496523 0.0040496523 0.0 0.0 -0.0040496523 0.0 -0.19843297 -0.14983714 0.0 0.04049652 0.0040496523 0.0 0.016198609 -0.0040496523
000090 28 00 00 0c d8 00 00 00 00 00 00 00 e1 12 15 00
       0.16198608 0.0 0.0 0.048595827 -0.16198608 0.0 0.0 0.0 0.0 0.0 0.0 0.0 -0.12553921 0.07289374 0.0850427 0.0
0000a0 02 00 01 00 00 17 00 27 00 01 01 ff 1f d8 f9 00
       0.0080993045 0.0 0.0040496523 0.0 0.0 0.093142 0.0 0.15793644 0.0 0.0040496523 0.0040496523 -0.0040496523 0.12553921 -0.16198608 -0.028347567 0.0
0000b0 01 01 00 d9 37 34 00 d1 00 01 dc ff 00 1b 01 f1
       0.0040496523 0.0040496523 0.0 -0.15793644 0.22273088 0.21058191 0.0 -0.19033365 0.0 0.0040496523 -0.14578748 -0.0040496523 0.0 0.10934061 0.0040496523 -0.060744785
0000c0 00 01 0c 21 00 ff fb 00 fe eb 00 02 ff 11 15 d6
       0.0 0.0040496523 0.048595827 0.13363853 0.0 -0.0040496523 -0.02024826 0.0 -0.0080993045 -0.0850427 0.0 0.0080993045 -0.0040496523 0.06884409 0.0850427 -0.1700854
0000d0 01 0a 30 02 00 00 00 00 00 00 ff 00 ff 00 02 00
       0.0040496523 0.04049652 0.19438331 0.0080993045 0.0 0.0 0.0 0.0 0.0 0.0 -0.0040496523 0.0 -0.0040496523 0.0 0.0080993045 0.0
0000e0 0d ff cd d2 04 01 d3 01 27 1e 0e d0 01 ff 00 00
       0.05264548 -0.0040496523 -0.20653227 -0.186284 0.016198609 0.0040496523 -0.18223435 0.0040496523 0.15793644 0.12148957 0.056695133 -0.19438331 0.0040496523 -0.0040496523 0.0 0.0
0000f0 ce 13 00 ff 00 00 00 00 f8 00 00 00 00 01 ff 00
       -0.20248261 0.07694339 0.0 -0.0040496523 0.0 0.0 0.0 0.0 -0.032397218 0.0 0.0 0.0 0.0 0.0040496523 -0.0040496523 0.0
