src/gallium/targets/teflon/tests/models/yolox/121.tflite (tflite, 1792 bytes, 1 tensors)

tfl.pseudo_qconst7 i1 [4, 1, 1, 64] scale=0.0033165065 zero_point=0
0.23215546 0.2056234 -0.0033165065 -0.013266026 -0.006633013 -0.0033165065 -0.38803127 0.0
0.0 -0.006633013 -0.006633013 0.0 -0.006633013 0.0033165065 -0.006633013 0.006633013
-0.013266026 -0.14260978 0.0 0.0033165065 0.38803127 -0.3018021 0.36149922 -0.0033165065
0.0 0.0 -0.016582532 0.0 -0.0033165065 0.006633013 0.019899039 0.006633013
0.049747597 -0.07296314 0.0033165065 -0.006633013 -0.36149922 0.033165064 0.009949519 0.0
-0.006633013 0.0 0.13597676 0.37476525 0.0033165065 -0.0033165065 0.26200402 0.0033165065
0.0 -0.006633013 0.0 0.0 0.019899039 -0.18904087 0.0033165065 0.0033165065
0.0 -0.0033165065 0.009949519 -0.19235738 0.0 0.0033165065 -0.16582532 0.009949519
-0.0033165065 0.013266026 -0.22552244 0.059697118 0.0 0.0 0.0 -0.006633013
-0.006633013 -0.006633013 -0.06301362 0.013266026 -0.19567388 -0.12271074 -0.006633013 0.089545675
0.24542148 -0.12602724 0.006633013 0.31506813 -0.0033165065 -0.013266026 0.0033165065 -0.0033165065
0.25205448 0.0 0.0033165065 -0.0033165065 -0.31838462 -0.0033165065 -0.39134777 0.0033165065
-0.0033165065 0.006633013 0.0033165065 0.0 -0.009949519 0.0 0.0 0.0033165065
0.0033165065 -0.019899039 0.0033165065 -0.016582532 0.0033165065 0.0 -0.013266026 -0.0033165065
0.006633013 0.4112468 0.0 0.009949519 0.23878847 0.026532052 -0.0033165065 -0.009949519
0.42119634 0.0033165065 -0.33165064 0.006633013 -0.0033165065 -0.13597676 0.0 0.0
-0.2023069 -0.21888943 -0.016582532 -0.09286218 0.013266026 0.006633013 0.17245834 -0.0033165065
-0.006633013 -0.0033165065 -0.0033165065 0.0 -0.013266026 -0.03648157 -0.009949519 0.0033165065
-0.023215545 0.07296314 -0.0033165065 0.0033165065 0.17245834 0.069646634 0.079596154 0.0033165065
-0.006633013 -0.22883895 -0.0033165065 0.0 -0.019899039 0.0033165065 0.026532052 -0.029848559
0.22883895 0.0 0.0 -0.0033165065 0.23215546 0.059697118 0.0033165065 0.0
-0.0033165065 -0.0033165065 -0.05638061 0.19567388 0.0 0.0033165065 0.17245834 0.0033165065
0.0 -0.009949519 -0.009949519 0.0 0.009949519 0.08622917 0.0 0.039798077
0.013266026 -0.006633013 0.006633013 -0.18904087 -0.006633013 0.016582532 -0.17577484 -0.006633013
-0.019899039 -0.009949519 -0.21225642 -0.11276122 0.013266026 0.0 0.019899039 0.0033165065
-0.006633013 -0.0033165065 0.10612821 -0.0033165065 -0.18572436 -0.043114584 0.0 -0.016582532
-0.21225642 0.03648157 0.0033165065 0.06633013 0.013266026 0.006633013 0.009949519 0.006633013
-0.18904087 0.0033165065 -0.0033165065 -0.0033165065 0.16582532 0.0 0.14924279 -0.016582532
0.013266026 0.0 0.0 -0.0033165065 0.013266026 0.006633013 0.0 0.0
-0.0033165065 0.009949519 -0.0033165065 0.009949519 0.0033165065 0.19899039 0.019899039 0.0
0.0033165065 0.20893991 -0.006633013 -0.0033165065 0.11276122 0.006633013 0.0 -0.039798077
0.18572436 -0.0033165065 0.06633013 -0.0033165065 -0.21225642 0.09617869 -0.0033165065 -0.0033165065
00000000: 463e fffc feff 8b00 00fe fe00 fe01 fe02
00000010: fcd5 0001 75a5 6dff 0000 fb00 ff02 0602
00000020: 0fea 01fe 930a 0300 fe00 2971 01ff 4f01
00000030: 00fe 0000 06c7 0101 00ff 03c6 0001 ce03
00000040: ff04 bc12 0000 00fe fefe ed04 c5db fe1b
00000050: 4ada 025f fffc 01ff 4c00 01ff a0ff 8a01
00000060: ff02 0100 fd00 0001 01fa 01fb 0100 fcff
00000070: 027c 0003 4808 fffd 7f01 9c02 ffd7 0000
00000080: c3be fbe4 0402 34ff feff ff00 fcf5 fd01
00000090: f916 ff01 3415 1801 febb ff00 fa01 08f7
000000a0: 4500 00ff 4612 0100 ffff ef3b 0001 3401
000000b0: 00fd fd00 031a 000c 04fe 02c7 fe05 cbfe
000000c0: fafd c0de 0400 0601 feff 20ff c8f3 00fb
000000d0: c00b 0114 0402 0302 c701 ffff 3200 2dfb
000000e0: 0400 00ff 0402 0000 ff03 ff03 013c 0600
000000f0: 013f feff 2202 00f4 38ff 14ff c01d ffff
