src/gallium/targets/teflon/tests/models/yolox/134.tflite (tflite, 932032 bytes, 1 tensors)

tfl.pseudo_qconst3 i1 [1, 81, 26, 26] scale=0.003921569 zero_point=-128
0	0x7f	1.0
1	0x7f	1.0
2	0x7f	1.0
3	0x7f	1.0
4	0x7f	1.0
5	0x7f	1.0
6	0x7f	1.0
7	0x7f	1.0
8	0x7f	1.0
9	0x7f	1.0
10	0x7f	1.0
11	0x7f	1.0
12	0x7f	1.0
13	0x7f	1.0
14	0x7f	1.0
15	0x7f	1.0
16	0x7f	1.0
17	0x7f	1.0
18	0x7f	1.0
19	0x7f	1.0
20	0x7f	1.0
21	0x7f	1.0
22	0x7f	1.0
23	0x7f	1.0
24	0x7f	1.0
25	0x7f	1.0
26	0x7f	1.0
27	0x7f	1.0
28	0x7f	1.0
29	0x7f	1.0
30	0x7f	1.0
31	0x7f	1.0
32	0x7f	1.0
33	0x7f	1.0
34	0x7f	1.0
35	0x7f	1.0
36	0x7f	1.0
37	0x7f	1.0
38	0x7f	1.0
39	0x7f	1.0
40	0x7f	1.0
41	0x7f	1.0
42	0x7f	1.0
43	0x7f	1.0
44	0x7f	1.0
45	0x7f	1.0
46	0x7f	1.0
47	0x7f	1.0
48	0x7f	1.0
49	0x7f	1.0
50	0x7f	1.0
51	0x7f	1.0
52	0x7f	1.0
53	0x7f	1.0
54	0x7f	1.0
55	0x7f	1.0
56	0x7f	1.0
57	0x7f	1.0
58	0x7f	1.0
59	0x7f	1.0
60	0x7f	1.0
61	0x7f	1.0
62	0x7f	1.0
63	0x7f	1.0
64	0x7f	1.0
65	0x7f	1.0
66	0x7f	1.0
67	0x7f	1.0
68	0x7f	1.0
69	0x7f	1.0
70	0x7f	1.0
71	0x7f	1.0
72	0x7f	1.0
73	0x7f	1.0
74	0x7f	1.0
75	0x7f	1.0
76	0x7f	1.0
77	0x7f	1.0
78	0x7f	1.0
79	0x7f	1.0
80	0x7f	1.0
81	0x7f	1.0
82	0x7f	1.0
83	0x7f	1.0
84	0x7f	1.0
85	0x7f	1.0
86	0x7f	1.0
87	0x7f	1.0
88	0x7f	1.0
89	0x7f	1.0
90	0x7f	1.0
91	0x7f	1.0
92	0x7f	1.0
93	0x7f	1.0
94	0x7f	1.0
95	0x7f	1.0
96	0x7f	1.0
97	0x7f	1.0
98	0x7f	1.0
99	0x7f	1.0
100	0x7f	1.0
101	0x7f	1.0
102	0x7f	1.0
103	0x7f	1.0
104	0x7f	1.0
105	0x7f	1.0
106	0x7f	1.0
107	0x7f	1.0
108	0x7f	1.0
109	0x7f	1.0
110	0x7f	1.0
111	0x7f	1.0
112	0x7f	1.0
113	0x7f	1.0
114	0x7f	1.0
115	0x7f	1.0
116	0x7f	1.0
117	0x7f	1.0
118	0x7f	1.0
119	0x7f	1.0
120	0x7f	1.0
121	0x7f	1.0
122	0x7f	1.0
123	0x7f	1.0
124	0x7f	1.0
125	0x7f	1.0
126	0x7f	1.0
127	0x7f	1.0
128	0x7f	1.0
129	0x7f	1.0
130	0x7f	1.0
131	0x7f	1.0
132	0x7f	1.0
133	0x7f	1.0
134	0x7f	1.0
135	0x7f	1.0
136	0x7f	1.0
137	0x7f	1.0
138	0x7f	1.0
139	0x7f	1.0
140	0x7f	1.0
141	0x7f	1.0
142	0x7f	1.0
143	0x7f	1.0
144	0x7f	1.0
145	0x7f	1.0
146	0x7f	1.0
147	0x7f	1.0
148	0x7f	1.0
149	0x7f	1.0
150	0x7f	1.0
151	0x7f	1.0
152	0x7f	1.0
153	0x7f	1.0
154	0x7f	1.0
155	0x7f	1.0
156	0x7f	1.0
157	0x7f	1.0
158	0x7f	1.0
159	0x7f	1.0
160	0x7f	1.0
161	0x7f	1.0
162	0x7f	1.0
163	0x7f	1.0
164	0x7f	1.0
165	0x7f	1.0
166	0x7f	1.0
167	0x7f	1.0
168	0x7f	1.0
169	0x7f	1.0
170	0x7f	1.0
171	0x7f	1.0
172	0x7f	1.0
173	0x7f	1.0
174	0x7f	1.0
175	0x7f	1.0
176	0x7f	1.0
177	0x7f	1.0
178	0x7f	1.0
179	0x7f	1.0
180	0x7f	1.0
181	0x7f	1.0
182	0x7f	1.0
183	0x7f	1.0
184	0x7f	1.0
185	0x7f	1.0
186	0x7f	1.0
187	0x7f	1.0
188	0x7f	1.0
189	0x7f	1.0
190	0x7f	1.0
191	0x7f	1.0
192	0x7f	1.0
193	0x7f	1.0
194	0x7f	1.0
195	0x7f	1.0
196	0x7f	1.0
197	0x7f	1.0
198	0x7f	1.0
199	0x7f	1.0
200	0x7f	1.0
201	0x7f	1.0
202	0x7f	1.0
203	0x7f	1.0
204	0x7f	1.0
205	0x7f	1.0
206	0x7f	1.0
207	0x7f	1.0
208	0x7f	1.0
209	0x7f	1.0
210	0x7f	1.0
211	0x7f	1.0
212	0x7f	1.0
213	0x7f	1.0
214	0x7f	1.0
215	0x7f	1.0
216	0x7f	1.0
217	0x7f	1.0
218	0x7f	1.0
219	0x7f	1.0
220	0x7f	1.0
221	0x7f	1.0
222	0x7f	1.0
223	0x7f	1.0
224	0x7f	1.0
225	0x7f	1.0
226	0x7f	1.0
227	0x7f	1.0
228	0x7f	1.0
229	0x7f	1.0
230	0x7f	1.0
231	0x7f	1.0
232	0x7f	1.0
233	0x7f	1.0
234	0x7f	1.0
235	0x7f	1.0
236	0x7f	1.0
237	0x7f	1.0
238	0x7f	1.0
239	0x7f	1.0
240	0x7f	1.0
241	0x7f	1.0
242	0x7f	1.0
243	0x7f	1.0
244	0x7f	1.0
245	0x7f	1.0
246	0x7f	1.0
247	0x7f	1.0
248	0x7f	1.0
249	0x7f	1.0
250	0x7f	1.0
251	0x7f	1.0
252	0x7f	1.0
253	0x7f	1.0
254	0x7f	1.0
255	0x7f	1.0
